model/model.pth (torch, 292158 bytes, 14 tensors)

linear1.weight f4 [256, 11]
00000000: 9296 f0bd ec84 8f3e a42f ef3d e4e8 6bbe
00000010: 1017 783e 103d b13d cef4 323e 2223 0f3f
00000020: 0e9b 3abf a063 4a3e 0183 5cbd 5043 3e3e
00000030: 6c43 84be c68f 883e b85c 923e 30cb 503e
00000040: 7b6f 03be 40da 38bd 8ffa 8ebe 6074 22bf
00000050: 25a8 2c3f 48f2 123f 62c2 36be 30f4 fe3d
00000060: 488e 30bd 90b8 44be 229f 8d3e 8ea4 45be
00000070: b0bd b1bc 444c a43d a229 9cbf 2c96 d63e
00000080: 7066 95be 5066 07bd 5ddf 91be 649b 64bd
00000090: 56c6 353e 4e76 dabd 40c5 09bc d203 2a3e
000000a0: 43ea 66bf b75f d1be b71f 3cbd af52 50bf
000000b0: 38cc 7dbe 0072 893c c07a 283d 0dca 13be
000000c0: f0ab c8bc aad1 99bd 22d2 6cbe 2b95 c8be
000000d0: 01a9 8dbf 8469 1abf db2d 44bf 0472 7c3e
000000e0: f0fb 52bd dc73 5bbd 90c4 583d 9426 b33d
000000f0: fc21 863d c00c 7fbc 6433 40bf 67de 2fbf
00000100: c199 fc3e 1c53 d6be 6c46 9abd 70d4 653d
00000110: 4021 153d 809a 6cbe d8dc 3c3d b679 81be
00000120: 16fe 5abe b3a4 48bf 5886 dfbe cbc4 c23e
00000130: d783 eabe b02f d53c ac6e 6b3e 547d 183e
00000140: 100f 693e 9d83 8fbe f039 1ebe e042 533e
00000150: 4cba 61bf c00b 43bf fcc1 1d3e ea3a 75bf
00000160: e44c 3dbe deb5 c0bd 5c5e 93be 1865 8e3e
00000170: e0ec 273e 0836 6d3d b054 623e 7885 60bf
00000180: 3114 fcbe eaa8 303f fb7e 48be 72c0 d6bd
00000190: 4162 96be 78fa 13be 744f f03d 40ef 043c
000001a0: c4a1 b13d 585a 8b3e 1e88 903e 6bcd 64bf
000001b0: dbe8 133e 8353 b1bf 6e9d 1b3e f45b a9bd
000001c0: f89f 13bd 3dab 0fbe 68d7 003d b2d2 493e
000001d0: b0bf fb3c 6e8c 013f 99e5 83bd c790 c6be
000001e0: 6bf9 79bf 3232 9a3e e404 783e a22a 8d3e
000001f0: 2488 8fbe e440 613e 78f8 483d 405e 5ebc
00000200: 0230 8abf 9ab9 2abe 4655 b3bf 4737 16bf
00000210: 2035 5cbd 9897 813e 42a7 943e 3819 543d
00000220: 3c66 8cbe 20c8 f13c 6450 053e 9654 1fbf
00000230: e552 b43c 24a7 25bf e42e 42bf 38c6 8c3e
00000240: c01b 323c 600b 493d cc5f 8c3e 6464 333e
00000250: 9a3a 813e bc19 6bbe d540 17bf 9a70 44bf
00000260: a40e ed3e 3bea 05bf a0c4 ff3d 9cfa 603e
00000270: f0ac 323e 98e0 133d d8a9 1d3e 28ef 833e
00000280: 2f37 7bbe f0b1 d63c 3f96 093f 71e4 fb3e
00000290: 15f4 c93e daf3 1f3e 3893 1bbe fc79 9cbd
000002a0: 58ff b43d 94ba 3b3e 8268 92be 5840 013e
000002b0: ff69 383e ef27 46bf 883e 91be a2d6 c0bf
000002c0: e235 12be e616 9abd 80b9 ac3b 7859 2ebe
000002d0: d0bc c53c 6e94 143e aa72 0c3e ba54 f4bf
000002e0: f308 e0bf 6d21 863e 30b3 0d3f acc0 253e
000002f0: d05d fa3d bcce 8abd 1a8c 95bd 324e 823e
00000300: 4005 383d b056 923e 0018 fb3e 2d04 36bf
00000310: d186 a8be a74f 81bf 0e38 8ebe 7078 8f3e
00000320: 2403 3bbe 0087 0fbd c67f 89be 08ec d03d
00000330: d44d 98be d2fe 3f3f c07f 35bd d530 86be
00000340: 2744 99be 1635 8c3e a009 4cbd bcb5 4d3e
00000350: 0066 dcbc 482e 2dbd c0e4 edbb 5479 a73d
00000360: 1bde 4bbe 0af9 cf3e 5478 1bbf a617 2ebf
00000370: 94a8 803e 407c 8a3b ab4d 8dbe 74d6 033e
00000380: e8c7 5fbd 3801 683e 9c88 84be 8fd9 003f
00000390: 2dea efbe 1f9b 43bd 310e 35bf 1616 e4bd
000003a0: cac7 473e 7133 6cbe 0c86 923d 784e 30bd
000003b0: 4edd c7bd 38a9 513e 0c1e 0abf 7794 debe
000003c0: df45 f2be 4db2 bb3e d80d 26bd f035 523d
000003d0: 72dd d3bd ea71 2fbe 64d6 cfbd df53 82be
000003e0: 4650 1f3e ae8b 34bf 2c8d 32bf 9ff4 62bf
000003f0: 729e 6dbf 40cb c0bb 8d59 07be 5a8b b2bd
-0.11747469 0.280311 0.116790086 -0.2303806 0.24227548 0.08654225 0.17476198 0.55912983
-0.72892845 0.19764566 -0.053835873 0.18580365 -0.2583269 0.2667219 0.28586364 0.2039001
-0.12835495 -0.045130014 -0.27925536 -0.63458824 0.6744407 0.5740094 -0.17847589 0.12448919
-0.04310444 -0.1921103 0.2766047 -0.19301054 -0.021696895 0.08022359 -1.2200205 0.41911447
-0.29179716 -0.033056557 -0.28490725 -0.055812255 0.1775144 -0.10667096 -0.0084088445 0.1660302
-0.90201205 -0.40893337 -0.045928683 -0.81376165 -0.24784935 0.016777992 0.04113269 -0.14432545
-0.024496049 -0.07510693 -0.23127034 -0.39176306 -1.1067201 -0.60317254 -0.7663247 0.24652869
-0.051509798 -0.05357729 0.05292183 0.087475926 0.06549451 -0.015567005 -0.75078416 -0.68698734
0.49336055 -0.41860282 -0.07532963 0.0561108 0.036408663 -0.23105812 0.04610905 -0.2528817
-0.21385989 -0.7837631 -0.43657184 0.38040766 -0.4580371 0.026023716 0.22991437 0.14891559
0.22759652 -0.280301 -0.15451789 0.2063098 -0.8817489 -0.76189804 0.1540603 -0.9579302
-0.18486363 -0.094096884 -0.28782928 0.27811503 0.16398954 0.057912856 0.22102618 -0.8770366
-0.49234155 0.6900774 -0.19579689 -0.10485925 -0.29371837 -0.14451015 0.117339045 0.008113682
0.086734325 0.27217364 0.2822885 -0.8937594 0.14444296 -1.3853611 0.15196773 -0.08269492
-0.03604123 -0.14030166 0.031455427 0.1970928 0.030731052 0.50604904 -0.06440277 -0.3878233
-0.97646207 0.3011642 0.24220616 0.2757159 -0.28033555 0.2199741 0.049065083 -0.013572276
-1.0795901 -0.16672364 -1.4010398 -0.58678097 -0.0537616 0.2531097 0.29033858 0.051781863
-0.2742175 0.029514372 0.13018948 -0.6223844 0.022012183 -0.6470816 -0.758528 0.2749498
0.010870874 0.049083114 0.27416837 0.17518765 0.25240022 -0.22959036 -0.590833 -0.76734316
0.46300232 -0.5231053 0.12488675 0.219706 0.17448783 0.03610286 0.15396821 0.257684
-0.2453277 0.026207894 0.5374488 0.49197724 0.39444032 0.15620366 -0.15192878 -0.07640454
0.088377655 0.18332893 -0.28595358 0.12622201 0.18009184 -0.77404684 -0.2836802 -1.5065501
-0.14278367 -0.07523899 0.0052711368 -0.17026317 0.024137884 0.14509746 0.13715616 -1.9088356
-1.7502731 0.26197377 0.55351543 0.1618678 0.122249246 -0.06777713 -0.07302113 0.25450283
0.04492688 0.28581762 0.49041748 -0.7110012 -0.32915357 -1.0102433 -0.2777714 0.28021574
-0.18262917 -0.035040855 -0.26855296 0.102012694 -0.29746878 0.749982 -0.044311285 -0.2620913
-0.2993481 0.2738425 -0.049813867 0.20088857 -0.026904106 -0.042280465 -0.007259935 0.081774384
-0.19908945 0.4061969 -0.6073048 -0.68004835 0.25128615 0.0042262375 -0.27598318 0.12874776
-0.054634005 0.22656715 -0.25885475 0.5033197 -0.4685835 -0.047755357 -0.7072478 -0.11137025
0.19509807 -0.23066498 0.07154474 -0.043043584 -0.097590074 0.20474708 -0.539521 -0.43472645
-0.47318932 0.3665947 -0.040540546 0.05132097 -0.10344972 -0.17133299 -0.10148314 -0.25454614
0.15557966 -0.70525634 -0.6974666 -0.8865451 -0.92819893 -0.0058836043 -0.13217755 -0.087179855

linear1.bias f4 [256]
00000000: aec4 50bf bdff 4ebf 9409 3fbf f77c 30be
00000010: f964 b4bd 126c 00bf e5d4 cebe 63aa 8abe
00000020: 8223 3fbf 1cc2 6bbe f092 0fbf 4b28 81be
00000030: 442a 3fbe 644d 12bf 1dd3 8bbf fdea 68be
00000040: e1c6 90be 1716 0dbf f321 53bf b9e9 21bf
00000050: 980a 16bf b09f d9be 4081 e4bc ad5e d4bd
00000060: 81bf f8be f4d0 d1be 199b 7cbf 34f4 aabe
00000070: 6013 9bbf f817 4bbf 8fc9 42bd 41a6 a5bf
00000080: 1a4e aebe 2089 7dbe 9da5 03bf 34c9 9dbe
00000090: 4057 1bbe 6f12 f6be 9a10 43be efb1 90bf
000000a0: 0668 4fbf 1123 c7be 3cbc 0abe 3fa1 50bf
000000b0: eaef f6be 7a49 82be 5e49 1bbf 0653 1cbf
000000c0: f0dc 84be 58f4 8dbe 5a2b e2be df67 b1be
000000d0: 1f69 4abf 3a38 0fbd 7480 9ebe 72d2 23bf
000000e0: 8d59 20bf 99d1 0ebf 4ec7 44bf 2cf9 70bf
000000f0: b0eb a8bf 2572 6dbe 09ff 04bf cf41 cfbe
00000100: 75db 09be faa0 38bd 703c 88be 1af6 46bf
00000110: 6f6b 88bf b973 22be 02e2 7abe 3489 54bf
00000120: 8875 01bf d6ed 88be c2d4 3ebe 08c6 57bf
00000130: 43de 6bbe 74fa 8abe e695 7fbf c921 65bf
00000140: c04d 72be 5af4 fdbe bb96 5fbe ac57 1abf
00000150: 614e 68bf 876d ebbe 7bdd ebbe 3764 9dbe
00000160: a44f 41bf dcdd bfbe d482 4dbe c77c 20be
00000170: 7d70 42bd 1950 22bf ce44 1abf e13e 2dbf
00000180: 7ec6 abbe 49ed 5abe b8b0 43bf 5fc9 12bf
00000190: 2ad4 95be 9d73 9abd 9209 b0be ece2 e8be
000001a0: 0423 3ebf 444a 66be b5da 9cbe 2325 61bf
000001b0: a327 17bf 46c9 58be 7850 c0bd 5049 15bf
000001c0: a068 5bbf 4dd2 5abe 185c 75bf 591a aabe
000001d0: f186 52be 9c75 e4bd d881 09bf 6ec7 5cbf
000001e0: 9a74 83bf a169 76be 4cc3 7ebe 9d01 9cbe
000001f0: 08b1 3bbf c4b7 fdbd b08f 09bf 38aa a7be
00000200: a928 e7bd e20e 903e 7719 cabe ee63 5cbf
00000210: 787c 9dbe cc07 b1be 3efe 0fbf 7651 55bf
00000220: 0d3c 00be c37a 92bf 87f4 13bf a6de 3abf
00000230: 1712 04bf 476f 18be ff73 d0bd 7089 e2bc
00000240: cb75 87be 6f77 97bf 610d b0be 1e19 b3be
00000250: 3ef4 2abf 59b1 7cbf 7d66 9cbe 1464 92be
00000260: 3276 4fbf 6669 80bd 9546 72be 7de6 28be
00000270: c989 74be b21c 5ebf 5f20 e2be 386f d6be
00000280: 7839 33bf a656 71bf 83c5 00bf 73d5 ddbe
00000290: 5f83 c6be cad3 02bd 0b9b 29bf bb33 6dbe
000002a0: d38d 64be 5f55 5fbf 3ac8 b7be ce3d 29be
000002b0: 7d57 d4be cb90 11bf 319d 1cbf e659 4dbf
000002c0: f1fc 3bbe 5605 74bd 3cca 5cbf ed9e 51bf
000002d0: 7e33 13be 2c3f bebe f059 69bf b7af 9abe
000002e0: 9909 dfbe 9926 c3be 703b b6be b3fc 24bf
000002f0: ab62 12bf d915 77bf dfe7 cabe 828e aabd
00000300: a8a2 54bf 69fd 84bf 04c1 5fbd eb30 55be
00000310: e230 dbbe 865a 86be 4467 70be 591c 73bf
00000320: 01b7 cbbe e1dd 5dbf 038a 67be 2e12 29be
00000330: 3c69 33bf b768 a03e c67d 21be 75dd 35be
00000340: a5a9 a2be d38f f9be fc77 e4bd ac3d b1be
00000350: 7f82 d8be 6a85 83be cf0a 67bf 39bf d03e
00000360: 5abe bdbe d3f5 f7be a678 2cbe 0c69 10bf
00000370: eb02 05bf c117 edbe c5a6 ae37 6578 a7be
00000380: 26cf 26bf e3d8 9bbe 9b68 d43e bb86 43be
00000390: 4ecb 9fbe 0f22 36be 6d1a 24bf 9e0e 34bf
000003a0: 7c17 99be da2f 2bbf 8fcb 8dbe e355 6ebe
000003b0: f80d 11bf 11ff e6be 3af5 56bf 47c6 39bf
000003c0: 0302 e1be 43ed cdbe 7a4c eabe a483 c4be
000003d0: d12a 0fbf 9468 3bbf d558 84be a0dc febd
000003e0: a4b5 84be ddcf c63e be7d 6abe c026 babd
000003f0: d8d2 35bf e035 8dbe af55 7dbf 8298 10bf
-0.8155011 -0.80858976 -0.7462399 -0.1723517 -0.088083215 -0.501649 -0.403968 -0.2708312
-0.74663556 -0.23023266 -0.56083584 -0.25226054 -0.18668467 -0.5714934 -1.0923802 -0.22745891
-0.28276733 -0.5511183 -0.8247368 -0.6324726 -0.58609915 -0.42504644 -0.027893662 -0.103696205
-0.48583606 -0.4097973 -0.9867416 -0.33389437 -1.2115288 -0.7933345 -0.047555503 -1.2941362
-0.34043962 -0.2475934 -0.5142458 -0.30817568 -0.15170002 -0.4806094 -0.19049302 -1.1304301
-0.810181 -0.3889394 -0.13548368 -0.8149604 -0.48229915 -0.25446683 -0.60658824 -0.61064184
-0.25949812 -0.27725482 -0.441737 -0.3464956 -0.7906665 -0.03496573 -0.30957377 -0.6399299
-0.62636644 -0.5578857 -0.76866615 -0.94130206 -1.3196926 -0.23188074 -0.5195165 -0.40479895
-0.13462622 -0.045075394 -0.2660861 -0.7771927 -1.0657786 -0.15864457 -0.24500278 -0.83021855
-0.50569963 -0.26743954 -0.18635848 -0.84286547 -0.23034005 -0.27144206 -0.998381 -0.8950468
-0.23662472 -0.49600488 -0.21834843 -0.60290027 -0.90744597 -0.45982 -0.46067414 -0.3074052
-0.75512147 -0.37473953 -0.20069438 -0.15672599 -0.04747056 -0.6340347 -0.6026124 -0.6767407
-0.33549875 -0.2137958 -0.76441526 -0.5733852 -0.2926343 -0.07541583 -0.34382302 -0.45485628
-0.7427218 -0.22489268 -0.3063561 -0.8794729 -0.59044856 -0.2117053 -0.09390348 -0.5831499
-0.8570652 -0.21369286 -0.9584365 -0.33223227 -0.20559289 -0.11155245 -0.5371375 -0.86241806
-1.0269959 -0.24063732 -0.24879187 -0.3046998 -0.73317003 -0.12388566 -0.53734875 -0.32747054
-0.11287052 0.28136355 -0.39472553 -0.8608998 -0.30759025 -0.3457626 -0.5624732 -0.83327425
-0.12522908 -1.1443714 -0.57794994 -0.72995985 -0.515901 -0.14886199 -0.101783745 -0.027653426
-0.26457056 -1.1833323 -0.34385207 -0.349801 -0.66778934 -0.9870811 -0.30546942 -0.2859198
-0.81039727 -0.06270103 -0.23659737 -0.16494174 -0.23880686 -0.86762536 -0.44165322 -0.41881728
-0.70009565 -0.9427284 -0.5030138 -0.4332691 -0.38772103 -0.03194026 -0.662522 -0.23164265
-0.22319727 -0.8723964 -0.35894948 -0.16527483 -0.41472998 -0.5686156 -0.61177355 -0.802153
-0.18358208 -0.0595754 -0.86246085 -0.81883126 -0.14375111 -0.3715757 -0.9115286 -0.30212185
-0.4356201 -0.38115385 -0.35592222 -0.6444809 -0.57181805 -0.9651771 -0.3963003 -0.083279625
-0.83060694 -1.0389835 -0.054627433 -0.20819442 -0.42810732 -0.2624094 -0.23476893 -0.9496513
-0.39788058 -0.86666685 -0.22611241 -0.16510841 -0.7008245 0.3132989 -0.15770635 -0.1776026
-0.31770054 -0.48742542 -0.11155698 -0.34617364 -0.4228706 -0.25687724 -0.9025087 0.4077089
-0.3705929 -0.48429736 -0.16842899 -0.5641029 -0.5195758 -0.46307185 2.0820074e-05 -0.3270904
-0.65159833 -0.3043891 0.41486058 -0.19094364 -0.31209797 -0.1778643 -0.6410282 -0.70334804
-0.2990073 -0.6686989 -0.27694365 -0.2327495 -0.5666194 -0.45116475 -0.83967936 -0.7256817
-0.43946847 -0.4022008 -0.45761472 -0.38381684 -0.5592471 -0.7320645 -0.25849023 -0.12444425
-0.2591983 0.38830462 -0.2289953 -0.09089422 -0.7102485 -0.27580166 -0.9895887 -0.5648271

linear2.weight f4 [256, 256]
00000000: 8542 d6bd d231 c1be 4454 003f 2fa9 813f
00000010: e9fc 0c3f de1e 593f a5ca 293f 9e57 8b3e
00000020: efa8 083e d954 cebc f77b cbbc 69cc 9fbd
00000030: dccc c93e d235 023f d483 febd f9fe a6be
00000040: a351 87bf e0fc b53e 959a d43e 6306 a53f
00000050: 794b 8e3e e4cc 96c0 695a 00bd d611 463f
00000060: e21b f7bd e69c 23bc c795 313f b16a 0ec0
00000070: 0db8 923f 2b3f 8cbd 6e54 5cbd 9684 e2be
00000080: f304 9c3f 96c7 01c0 6a87 ae3e b68f 7f3f
00000090: 9ad0 15c0 8b1f a63f bd50 ea3e e2b2 f23e
000000a0: c507 923e b27a 66bf 2902 1fbf 08fb cfbe
000000b0: b954 963f 7ec3 033f 9979 9a3f 1e8c 4dbe
000000c0: 59e8 0f3f 1cf1 c5be 996c 74c0 4d16 ec3e
000000d0: 8285 30be 0430 a83d d3b7 ea3e 904b 0b3e
000000e0: 4502 b13e a4fb fbbf e9be d13d b8af 933e
000000f0: a34b 5e3e d4cf a43d 06f8 3c3e 54ff 453f
00000100: a588 26be 6cac 8ebf 14d2 78bf 1ed0 04bf
00000110: a2d3 983d 6298 183e 79dd 5c3e ea71 a93f
00000120: 92a8 c43d b88e afbf b5a7 963f 7999 cfbd
00000130: 042e 10c0 9c33 113f 68c9 6fbe b012 8c3d
00000140: cad3 a33e f110 0c3f bee2 49c0 8268 133f
00000150: b338 23bf 174c f93e 2d27 063e 2d3a 23c0
00000160: 1f3f 28be dc49 9c3f 3d98 0bbf 6fb3 09be
00000170: 84bc ddbf 08e5 44bd 38f9 e9be 6018 2f3e
00000180: 34d4 6fc0 c8c7 bcbe f0e2 a1bf 38a4 9e3f
00000190: 8468 45bf bd78 6d3e bb5f b8bd eccd f83e
000001a0: bdb1 edbe eef4 63c0 65d0 13be 9133 40be
000001b0: 53d6 64c0 e999 093f e072 0cc0 c4f9 22be
000001c0: ad57 bb3e 03e2 4f3e 81c8 02bf cd6a 86c0
000001d0: f782 7c3e 5036 8abf c0cd 18bf 566a 8dbe
000001e0: 15ce 0b3f 8749 c9bf 9260 8b3e 8157 03c0
000001f0: 90be 043e 278b 7dbd 3165 1b3f 950c ee3e
00000200: 1ecc 0ebe 889c 91bf d41a 39be f904 89be
00000210: bbad a8bf c0b4 d3bf 42cf 29c0 31c7 f1bd
00000220: 60f7 25be f1cf 83be 822f 56c0 d40d 22bf
00000230: e195 4a3e c20a 99bf 69ca c13e a795 d4bf
00000240: 764f d53e f984 c33e 6227 f4bf 6c01 ed3f
00000250: 0e39 343d fa72 2d3d ae74 773f 9bf0 c83e
00000260: efe3 203f cc10 823e a2fb 81c0 b7bb 8bbd
00000270: 94d0 ad3e e5c2 083f 0d80 743d f3b2 bfbf
00000280: c1b1 923f 01f7 0b3f 997d c33e 96c6 f63e
00000290: 1222 6fbe e786 86be de32 143f 0ee7 d13e
000002a0: 0ede 0fbe d238 30bd e367 973e 73bf 08be
000002b0: fb73 a53d 0877 bc3e b52b 413f a4af 56be
000002c0: 6384 ec3e 9e51 363f 11d3 93be ecbb 8c3e
000002d0: 6e98 f33d d6c3 81bf 7174 f7be f4de 3e3f
000002e0: dc44 21bf 8002 103f fb0f cbbe 9607 423e
000002f0: 7b1d b03e db2a 98bd f2aa 8d3f cf01 9cbd
00000300: 2673 d43e b0fd eb3e ae45 c53d 3310 783e
00000310: 6c64 203d 0a29 813e 9a1b 173f 939b 143d
00000320: fae8 a2be 9fb2 a03e ee00 313f cdde 5f3d
00000330: bca4 093f 2fdb 523e a7f1 693f bd2e 70c0
00000340: ea07 6f3f a7e8 ed3e 8874 363e 4167 b93f
00000350: 65db 36bd b67e 013f f555 b9be c33d 183f
00000360: 3fea aabf e726 b23c 2947 053f 1e5e aa3d
00000370: b5a7 c43e b009 c1be 7329 89bd 5887 1ebf
00000380: a1df 04c0 c6a0 743f 10fb cbbf 8e15 43bd
00000390: 5828 09bf dda4 4e3e 102a 353e 9755 a63f
000003a0: 6b88 1f3c e89f 48be ef59 dbbe de6b 8bc0
000003b0: 6b14 b53e 8036 44bf 8153 b0be 7520 4abd
000003c0: 4f45 643f f6d7 983e 7a77 7b3e 40bb bc3e
000003d0: 7421 44bf 429e 8dbe 1503 e0bf dafa 47c0
000003e0: 87c4 07c0 c856 cebf d3b6 f2bf 7f91 633f
000003f0: 7bf8 253e 2728 343f 4088 ae3e ffa6 5c3f
-0.10461906 -0.37733322 0.5012858 1.0129756 0.5507341 0.84812725 0.66324836 0.27215284
0.13345693 -0.025186943 -0.024839384 -0.0780266 0.39414108 0.50863373 -0.12427488 -0.32616404
-1.0571789 0.3554449 0.41524187 1.2892574 0.27791956 -4.712511 -0.03133622 0.77370965
-0.12065865 -0.009986138 0.6936917 -2.225262 1.1462418 -0.06847986 -0.053791456 -0.4424178
1.218901 -2.0278068 0.34087688 0.9982866 -2.340857 1.2978376 0.45764723 0.47402102
0.28521553 -0.9003097 -0.6211267 -0.4062121 1.1744605 0.5147017 1.2068359 -0.20072982
0.5621391 -0.38660514 -3.8191283 0.46110764 -0.17238429 0.08212283 0.45843372 0.13603044
0.34572044 -1.968617 0.10241491 0.28845 0.2170854 0.080474526 0.18453988 0.77342725
-0.16263063 -1.1146369 -0.97195554 -0.5188006 0.07462241 0.1490188 0.2156886 1.3237889
0.09602465 -1.3715429 1.176993 -0.101366945 -2.2528086 0.56719375 -0.23416674 0.06839502
0.3199752 0.5471335 -3.1544642 0.5758134 -0.6375839 0.48690864 0.13100882 -2.5504258
-0.16430329 1.221004 -0.5452917 -0.13447355 -1.7323155 -0.048069984 -0.4569795 0.17099142
-3.7473269 -0.3687117 -1.2647381 1.2393866 -0.77112603 0.23190589 -0.09002634 0.48594606
-0.46424666 -3.5618243 -0.14434965 -0.18769671 -3.5755813 0.53750473 -2.1945114 -0.1591559
0.3659033 0.2030106 -0.51087195 -4.200537 0.24659334 -1.0797825 -0.5968895 -0.2762019
0.5461133 -1.5725564 0.27222115 -2.0522158 0.12963319 -0.061900284 0.6070128 0.46493974
-0.13945052 -1.1375895 -0.1807664 -0.26761606 -1.3178018 -1.6539536 -2.653275 -0.11805571
-0.16207647 -0.25744584 -3.3466496 -0.6330235 0.19783737 -1.1956408 0.3784974 -1.660817
0.41662186 0.38187388 -1.9074519 1.8516059 0.043999724 0.04234598 0.96662414 0.39246067
0.628478 0.2540344 -4.061967 -0.06822913 0.33948195 0.53422385 0.05969243 -1.4976486
1.1460496 0.54673773 0.3818176 0.48198384 -0.2335284 -0.26274797 0.5789012 0.40996593
-0.14049551 -0.043022938 0.29571447 -0.13354282 0.08078762 0.36809564 0.75457317 -0.20965439
0.46194753 0.7121829 -0.28871968 0.27487123 0.11894308 -1.0137889 -0.48331025 0.7455895
-0.62995696 0.56253815 -0.3966063 0.18948206 0.34397492 -0.07430049 1.1067793 -0.076175325
0.414941 0.46091986 0.09632431 0.2422493 0.03915827 0.25226623 0.5902649 0.03628118
-0.31818372 0.31386277 0.69142044 0.05465584 0.5376699 0.20591424 0.9138436 -3.7528527
0.9337145 0.46466562 0.1781789 1.4484636 -0.044642825 0.5058397 -0.36198393 0.5946924
-1.3352736 0.021747066 0.52061707 0.08318733 0.384092 -0.37702703 -0.06697359 -0.6192527
-2.0761492 0.9555782 -1.5935993 -0.047627978 -0.53577185 0.20180078 0.17691827 1.299487
0.009737114 -0.1959225 -0.4284205 -4.3569174 0.3536714 -0.7664566 -0.34438708 -0.04934736
0.89168257 0.29852265 0.24557295 0.3686161 -0.76613545 -0.27659804 -1.750094 -3.1246858
-2.12137 -1.6120234 -1.8962044 0.88893884 0.16208069 0.7037377 0.34088326 0.86192316

linear2.bias f4 [256]
00000000: 8d89 17bf 0302 1abf 5a95 17bf dc31 a2be
00000010: a9f4 cebe 8164 d7be 2bbc debe 183b d9be
00000020: a740 9fbe 5b65 87bf acee 17bf 77aa 1ebf
00000030: 63f0 febe eb2f 8ebe 8577 83be e56b 62bf
00000040: c93a 95be 2091 4abf 5db7 dabe 43b0 76bf
00000050: 7bbc bdbe 948a 723f b998 3cbf 92ef 23bf
00000060: be0b 7abe f2bb 18bf 0757 c4be 0017 0dbf
00000070: 22b6 0bbf a208 38bf 144e 07bf 6ebc bbbe
00000080: 3cc0 0d3f 41ce 4abf d832 88bf 4c8e 1fbf
00000090: ca7c f9be ca44 e9be 6e4e 1bbf eb55 11bf
000000a0: 90e7 98bf 7969 87be b7b6 f0be 59f5 8dbf
000000b0: 40f4 bdbe e051 dfbe 377a 06bf 2ce0 d3be
000000c0: aca9 6bbf 5e93 21bf 689b 8cbf b7fd 17bf
000000d0: 2136 3fbf 3ddc 5fbf c8bf 15bf 16cf a2bf
000000e0: 5acf 31bf 5587 dabe 82ac 21bf 73ac 5bbf
000000f0: 3ec0 ecbe 079d 1abf 65a7 1abf 1f67 28bf
00000100: a69a 1abf 5808 d4be 53a0 24bf 58e0 1cbf
00000110: 98ee 0cbf 310f 8abe 21e7 94bf f79e 83bf
00000120: d4ae 06bf 1eb5 0bbe d7c0 31bf 1655 d6be
00000130: abbd 2cbf 79e8 56bf 4db1 0abf 434c bfbd
00000140: 7b68 3fbf 39ce d2bf f55a 6bbe 7aa4 44bf
00000150: 5602 cd3d 736f 54bf 7e58 c9be e9cd 22bf
00000160: af87 2f3f 64ed 813e 377f 3dbf 7262 9cbe
00000170: a26d c6be ac5f 643d c303 0abf 5973 30bf
00000180: 5c61 10bf 8d62 abbe f78c 2abf 1c36 d5be
00000190: c28b 89bf 4594 b8be cb6e 63bf e17f 103f
000001a0: 683b c5be f328 8bbe cab4 8fbf 9ef9 4fbf
000001b0: aa2d 1fbf 39f3 1abf 5c59 0dbf a8fb 3ebf
000001c0: 8437 b7be 08bc eebe 6bb3 1dbf e609 81bf
000001d0: c15d 19bf 11d1 20bf 47b8 04bf bed5 9ebe
000001e0: a35e 57bf 1b3b 0abf 125a 1dbf 7b18 6ebf
000001f0: aa44 66bf d461 e1be 7327 253e 35c5 dabe
00000200: 14f9 43bf 0553 1cbf f81f e5be 0ae4 aebe
00000210: 6be3 0cbf b42d bcbe e5c5 c4be d72e 1abf
00000220: 17a3 49bf 0484 72be 7bbb adbe 38f9 24bf
00000230: f7aa dabe 4511 76bf 2ad6 00bf 0d38 ccbe
00000240: 2318 dfbe 6e54 6ebd 4f77 0bbf 26a3 0fbf
00000250: b6f3 d0be 87d4 98be 618a 3bbf 1378 8ebe
00000260: b482 1fbe 7284 18bf 0e4b ddbe 4d45 30bf
00000270: b23b 6dbf 7ed6 b3be 8881 f6bd 6681 18bf
00000280: 6395 adbe 1a5a b9be 3646 9dbe 2b90 08bf
00000290: 7a0d b8be a3ba 08bf 9514 46bf f2b3 fbbe
000002a0: f6d8 71bf 8b6f cebe b263 97be 1c8d 7dbf
000002b0: 5fe7 18bf a1fe 44bf 6ca0 12bf e9a7 e9be
000002c0: e7e1 15bf 0393 82bf 2e0c 56be 2efe 9f3d
000002d0: 85f2 59bf f5ce 61bf d8c9 71bf e366 12bf
000002e0: 1b10 4bbf 5579 c2be 604a 24bf 9de6 1dbf
000002f0: 6559 eebe 3778 3d3f 3569 a9be 5b98 b4be
00000300: e2a3 58bf 9050 2fbf 786c 2dbf 1e6b 3cbe
00000310: 83fb 33bf 96a4 19bf 1572 17bf 460c 1bbf
00000320: 3af6 d8be d171 52bf c243 0fbf 9fd5 0abf
00000330: cc08 73be 9236 75bf eacc 85be 0503 4ebe
00000340: 263b 1abf 3988 5cbf bcc3 17bf 4b1b 0cbf
00000350: b5ab fcbe f01d 11bf 1a7a 7fbf 46ea 0cbf
00000360: 96cf 70be 9a1d 42bf 985f c8be 02b5 3abf
00000370: b8c5 83bf 70fe bcbe bfa7 26be 5904 59bf
00000380: a107 aabe f4f8 1abd 1569 b1be 9179 7fbe
00000390: 973a 0abf 9d20 60bf a380 98be 4289 e4be
000003a0: 10b3 e8be 385b c2be 68ad afbe 1d6a 2bbf
000003b0: c03f a9be 45f6 8dbf 135f 2bbf bbc0 3a3e
000003c0: 8193 36bf 8dbf 68bf 5449 f5be 51c2 883e
000003d0: 8113 0ebf 676d 07bf dc80 65be a41a fabe
000003e0: 14ea 7bbf fb30 d0be 606e 783e d14e 30bf
000003f0: 7881 1cbf a5b0 dabe e3b4 09bf 2e37 273f
-0.5919426 -0.6015932 -0.5921227 -0.31678665 -0.40421036 -0.42068866 -0.43502936 -0.42427897
-0.31104013 -1.0577806 -0.5934856 -0.6197886 -0.49792776 -0.27770934 -0.25677124 -0.88445884
-0.29146412 -0.79127693 -0.4271802 -0.96362704 -0.37057862 0.94742703 -0.73670536 -0.6403743
-0.24418542 -0.5966178 -0.38347647 -0.5511322 -0.5457479 -0.7188817 -0.5285351 -0.36667198
0.5537145 -0.7922097 -1.0640516 -0.623265 -0.4872802 -0.45560294 -0.6066655 -0.56771725
-1.1945667 -0.26447657 -0.470144 -1.1090499 -0.3710041 -0.43617153 -0.52530235 -0.41381967
-0.92055774 -0.6311549 -1.0984926 -0.59371513 -0.7469197 -0.8744543 -0.5849576 -1.2719448
-0.6945702 -0.42681375 -0.6315385 -0.8581001 -0.4624042 -0.60395855 -0.60411674 -0.6578235
-0.60392225 -0.41412616 -0.64307135 -0.6127982 -0.55051565 -0.26964715 -1.1633035 -1.0282887
-0.52610517 -0.1364331 -0.69434875 -0.4186179 -0.6747691 -0.83948475 -0.5417679 -0.09340718
-0.747688 -1.6469184 -0.22983916 -0.7681347 0.10010211 -0.8298256 -0.39325327 -0.63595444
0.6856641 0.25376427 -0.7402224 -0.30543858 -0.38755518 0.055755302 -0.5391199 -0.68926007
-0.5639856 -0.33473626 -0.66621345 -0.41642845 -1.0745776 -0.3605062 -0.8884093 0.5644513
-0.38521886 -0.2717968 -1.1227047 -0.8124026 -0.6217905 -0.6052738 -0.55214477 -0.74602747
-0.35784543 -0.4662783 -0.61601895 -1.0081146 -0.5990868 -0.6281901 -0.51843685 -0.31022447
-0.8412878 -0.5399644 -0.6146556 -0.93006104 -0.89948523 -0.4401995 0.1612833 -0.42728582
-0.7655194 -0.6106418 -0.44750953 -0.34158355 -0.5503451 -0.3675362 -0.38432232 -0.6022772
-0.7876448 -0.23683172 -0.339321 -0.6444278 -0.4270856 -0.961201 -0.5032679 -0.39886513
-0.43573102 -0.058185987 -0.54478925 -0.5610832 -0.40810937 -0.29849645 -0.73258024 -0.27825984
-0.15577203 -0.59577096 -0.43221325 -0.68855745 -0.9266921 -0.35124582 -0.12036425 -0.59572446
-0.33903036 -0.36201555 -0.3071763 -0.5334498 -0.35947782 -0.53409785 -0.77375156 -0.49160725
-0.9447168 -0.40319476 -0.2956825 -0.9904344 -0.59728044 -0.7695103 -0.57276034 -0.45635918
-0.58547825 -1.0201114 -0.20903084 0.07812153 -0.8513568 -0.88206416 -0.94448614 -0.5718824
-0.7932145 -0.37983194 -0.6417599 -0.6168001 -0.46552578 0.7401156 -0.3308808 -0.35272488
-0.84625065 -0.68482304 -0.67743635 -0.18400237 -0.7030565 -0.60016763 -0.5915845 -0.605656
-0.42375356 -0.8220492 -0.55962765 -0.5423221 -0.23733824 -0.9578639 -0.261329 -0.2011834
-0.60246503 -0.8614536 -0.5928304 -0.54729146 -0.49349752 -0.56686306 -0.9979569 -0.5504497
-0.23516688 -0.7582642 -0.39135432 -0.72932446 -1.0294714 -0.3691287 -0.16274928 -0.8477226
-0.33208945 -0.037835076 -0.34650484 -0.24948718 -0.5399565 -0.87549764 -0.29785642 -0.4463597
-0.45449114 -0.3796022 -0.34311986 -0.6695879 -0.3305645 -1.109078 -0.66941947 0.18237583
-0.71318823 -0.90917283 -0.47907507 0.26710752 -0.5549851 -0.5290131 -0.22412437 -0.4884845
-0.9840405 -0.4066237 0.24260855 -0.68870264 -0.61135054 -0.42712894 -0.53791636 0.6531857

linear3.weight f4 [4, 256]
00000000: 661e 6dbe ad16 a33d d15a 1a3d 517b 583e
00000010: dbd6 4ebd b7c4 743e bd2b 61bd 4ac8 2cbe
00000020: 0b9c d23d 2d94 f83e 5e79 413e 83f5 cebc
00000030: c728 35bf bdc0 c2be 5002 303e e7e6 0bba
00000040: 24f6 643c 9e5b 273f 6762 71bd 5550 a2be
00000050: 656a 51be eb46 413f 56e1 533f bec3 f93c
00000060: 4bca e5bd ad0b e1be fdd9 723e 1d6f f2be
00000070: f3ba 8a3d dd64 6cbf d7ce b23f 803d 0b3e
00000080: 4c4f 7a3d f346 4fba 2a94 943e 8004 e0bd
00000090: 8a32 ffbc 8c80 793d cd63 50bf 4b43 903e
000000a0: c310 79bd df36 1bbc ccaf d33e cb0d a0be
000000b0: efe5 4c3e 45f1 02be 666b 833e 55b7 4ebe
000000c0: 1e95 9c3e 5053 afbd da0d 333f 7686 853d
000000d0: dd94 aabe 1a07 e4be 4e2a e8bc 8c5b 053e
000000e0: dcf5 14bf 9196 1d3f 9ee7 d4bd 03d1 683f
000000f0: c57b 5a3c 7ba3 123f 79c3 643d ed0c 293f
00000100: 1c92 473e 71ff 6a3f e88a 113e 8ebc fcbd
00000110: 519b eebe a873 733e 72bc 9dbe 4fdf 3c3d
00000120: 1112 7d3e 20e9 fabe b1c1 fb3c b9da 17be
00000130: 2d56 823f 1f14 4f3f 9316 993f 7740 f2be
00000140: 0f22 77bd 8a46 40bd 7c9a 1dbb 528b 0cbd
00000150: 7e17 25be d2ed 923f c728 bfbd c1e5 0d3d
00000160: 6e23 ba3d 12aa 203e e198 06bf 2c17 573e
00000170: f841 97bc aa29 18be 4f94 8a3f 40a1 b2bd
00000180: 5ec7 1c3e ea2f a73e 67b1 0e40 4d88 2f3d
00000190: cc3e f23d 22c4 76bd 15ae 5bbe c454 bfbe
000001a0: a1b3 df3d 409c eb3e 21cf 9c3e 94d4 923e
000001b0: 1f03 ab3f 6a1b 893d 461e c3be 3b27 8abd
000001c0: 4b18 453f 52e6 26be b1a7 98be ccb4 183f
000001d0: 4a5b 303d 92a7 46bd 63c7 2a3f 1111 853c
000001e0: b2c9 af3d 14ce 333f b5fc d4bd 2934 b9be
000001f0: cf8f aa3e ddba 92bd 267a 6fbe 0557 3ebd
00000200: a95a b63e bc73 353e 5491 91be 1803 06be
00000210: 881e 1fbe 1a4b a33e f6f0 183c 0fcf 09be
00000220: 5541 523e 40fc ccbc c81e 53be 03ad 1b3e
00000230: 8b8a 8bbd 8f75 10be 71c0 d13c d547 e83d
00000240: 0ad8 b73d 3a97 0a3d dea1 a53e 37c2 6b3c
00000250: 858b 10bc e8ce 8d3c 8126 153d cc9b 50bc
00000260: e91b ce3e a453 cbbe 1d70 263f 1c5e 3dbe
00000270: 538d d23e fcbd ae3e 12ad 34bd 5774 8a3e
00000280: d504 a0be 7571 60be 08ba 2fbe 74c7 4dbe
00000290: 68aa adbc af4a 2a3d a480 f13b dbf9 87bd
000002a0: c0e7 6f3f 10e9 a0be 1d16 953d 2cbc 2bbf
000002b0: 126c d43d eb62 953e 2ef9 cebe 5340 3abc
000002c0: 574a 443e e621 ac3e 1123 aabe 86f9 23be
000002d0: 0122 21be 8912 5b3f 1f8f 79be f98c 77bd
000002e0: fa25 a6bd 55f9 9bbd 7155 b43f 50ad 153e
000002f0: 64e2 92bd 7f6a 953f 770d 4cbd 3e22 e3bd
00000300: bb3e 6ebe ce3f 0c3f e856 a93c e140 acbe
00000310: 1062 813e 5158 0ebd e361 683e d6d5 4d3e
00000320: 5ef2 07be 397e 84bd a52c 75be 7ac5 b9bd
00000330: f73b 213f c7ae 803d 18c9 283e ddc6 cd3d
00000340: 1103 db3e 2884 04be a857 6f3d 1ce4 a3be
00000350: 05fd dbbc 3f56 a03d 58ae bf3f f0a8 ebbb
00000360: 3e13 443c 1e0e 3abe f0da cf3f 1601 09bd
00000370: b1db 0d3f 567d 51bd 1228 c63e 15ba 023f
00000380: be07 80bd 5bcf 223c ecad 88bd 8c00 49bd
00000390: bc58 063e 138f fa3e 6a45 0abd e6d8 b2bd
000003a0: fb58 04bf f189 a43c 72c1 dcbd 6ea0 82be
000003b0: 3b24 473e 2c5b b2bd 26d5 e63a 6340 a5bd
000003c0: 35db dd3d be31 313d 568d 193c e1fd f1bd
000003d0: bd00 283f ea9a c6bd 21d0 fbbd dd1e 133f
000003e0: dcf7 883e 7465 a13e 35eb e8bd 8caa 7cbe
000003f0: c2af 083f 5530 5e3f 6629 643d bfd1 63be
-0.23156127 0.079633094 0.037684266 0.21140791 -0.05049787 0.23903166 -0.054973353 -0.16873279
0.10283669 0.4855055 0.18893954 -0.025263553 -0.70765346 -0.38037673 0.17188382 -0.00053368363
0.0139747 0.6537417 -0.058931734 -0.31701913 -0.20450743 0.7549884 0.8276571 0.030488845
-0.11220225 -0.4395422 0.23715968 -0.47350398 0.06773939 -0.92341405 1.3969373 0.13597679
0.06111078 -0.00079069956 0.2901929 -0.10938358 -0.031152029 0.060913607 -0.81402284 0.2817634
-0.060807 -0.0094735315 0.4134506 -0.31260523 0.20009588 -0.1278735 0.25667876 -0.20187123
0.30582517 -0.085608125 0.6994301 0.06519787 -0.333167 -0.44536668 -0.028340485 0.13023204
-0.5818765 0.6155787 -0.1039574 0.90943927 0.013335173 0.572807 0.05585048 0.6603535
0.1948933 0.9179602 0.14213145 -0.123406515 -0.46602872 0.23774588 -0.30807835 0.0461114
0.24713923 -0.49005985 0.030732008 -0.1482953 1.0182549 0.8089008 1.1960014 -0.47314808
-0.060335215 -0.04694227 -0.0024048379 -0.034312554 -0.16122243 1.1478827 -0.093339495 0.03464294
0.09088789 0.15689877 -0.52577025 0.21004933 -0.018464074 -0.14859644 1.082651 -0.08722162
0.15310428 0.32653743 2.2295778 0.042854596 0.11828384 -0.06024564 -0.21453126 -0.3736936
0.10922933 0.46017647 0.30626777 0.2867781 1.3360327 0.06694682 -0.38109034 -0.06745764
0.76990193 -0.16298798 -0.29815438 0.59650874 0.04305581 -0.04849965 0.6671049 0.01624349
0.08583392 0.70236325 -0.103997625 -0.36172608 0.33312842 -0.071645476 -0.2338644 -0.046469707
0.35616043 0.1771993 -0.2843119 -0.13087118 -0.1553899 0.31893235 0.009334793 -0.13457893
0.20532735 -0.025022626 -0.20617211 0.15202717 -0.06813534 -0.14107345 0.025604459 0.11341826
0.08976753 0.033835627 0.32350057 0.014389566 -0.008822327 0.017310575 0.036413673 -0.012732457
0.4025567 -0.3971225 0.6501482 -0.18492931 0.41123447 0.34129322 -0.044110365 0.27041885
-0.31253687 -0.2191828 -0.17160809 -0.20095617 -0.02119942 0.04157513 0.0073700715 -0.06639453
0.93713 -0.31427813 0.072796084 -0.67084 0.10372175 0.2917703 -0.40424484 -0.011367875
0.19168983 0.33619612 -0.3322988 -0.16013154 -0.15735628 0.8557516 -0.24371003 -0.060437176
-0.08112712 -0.07615916 1.4088575 0.14616895 -0.07172087 1.1673125 -0.04981753 -0.110905156
-0.23266117 0.5478486 0.020671323 -0.3364325 0.25270128 -0.034752194 0.22693591 0.20101103
-0.1327605 -0.064693876 -0.23942812 -0.09070869 0.62982124 0.06283336 0.16482961 0.10047696
0.42775777 -0.12941039 0.058433205 -0.3200997 -0.026854048 0.0782895 1.497508 -0.00719177
0.011967478 -0.18169448 1.623869 -0.0334483 0.5541335 -0.05114492 0.38702446 0.5106519
-0.06251477 0.009937133 -0.06673798 -0.049072787 0.13119787 0.48937282 -0.033757605 -0.08732776
-0.51698273 0.020085307 -0.10779084 -0.25513023 0.19447415 -0.08708796 0.0017611131 -0.080689214
0.10832826 0.04326033 0.009372076 -0.11816002 0.65626127 -0.09697516 -0.12295557 0.5746897
0.26751602 0.31522715 -0.11372987 -0.24674433 0.53393185 0.867925 0.055703543 -0.2224798

linear3.bias f4 [4]
00000000: d7a7 9abf a99c a2bf 1779 54bf 044b 81bf
-1.2082471 -1.2704059 -0.8299727 -1.0101018

bn1.weight f4 [256]
00000000: bad1 833f 80fd 813f 5e5d 9a3f e2d2 533f
00000010: b1f5 843f 2ce2 933f 3e53 753f ab82 7e3f
00000020: bef5 833f 9402 883f d178 973f 4a31 823f
00000030: aa1c 7d3f d89c 773f a3ed 863f 5893 863f
00000040: ac23 a33f 7059 923f 4c80 883f 4bf2 653f
00000050: cb38 873f c555 903f 8dce 8f3f ce94 6d3f
00000060: b8cb 863f 2191 873f 7c1c 803f df71 6b3f
00000070: 542c 753f a990 963f 1494 5a3f 2c1c 523f
00000080: cfce 7e3f 69fd 6e3f d751 633f fca6 5b3f
00000090: 88a2 683f 977f 693f 5d76 7d3f e310 7d3f
000000a0: ca4e 423f 4157 8a3f 6948 893f 6d2d 653f
000000b0: 58a5 6a3f 88ff 653f e662 5e3f cb78 5b3f
000000c0: 6065 823f b2a6 463f ec7e 733f d6ec 783f
000000d0: 858b 803f cc3f 823f 8692 893f d5c8 513f
000000e0: f4a6 993f 7fcd 653f 5281 953f bc7d 873f
000000f0: fa6e 533f fa09 823f a781 883f 115c 7a3f
00000100: 92d1 813f ba26 683f 4406 793f 518c 823f
00000110: 39ac 843f 6663 933f ad2d 823f 3e8d 403f
00000120: 38d3 7f3f 5ee9 823f 2afb 4d3f a469 823f
00000130: b64c 783f 16b2 403f 79d8 823f 9870 753f
00000140: c4a9 993f 7fc5 893f 1a4e 6e3f ee4a 8c3f
00000150: 2ba1 503f 60d7 863f d275 853f e155 7d3f
00000160: d467 8b3f 2aa2 563f 00f1 3b3f 8672 823f
00000170: 8055 603f da0f 7d3f 4058 853f 3fd4 8a3f
00000180: 4c98 773f a85b 3e3f a2c2 5a3f ea88 513f
00000190: 88ba 4a3f cb5d 823f 6d22 813f ce50 463f
000001a0: 3d35 683f b5a8 6c3f adb9 833f 7732 7f3f
000001b0: 7fdb 773f 3cd9 643f 98c8 783f 1cb1 863f
000001c0: 8291 863f 1001 6b3f 87fe 5d3f 2b04 853f
000001d0: 50d7 433f 5fd1 6e3f 021a 783f d9a1 5c3f
000001e0: 010d 993f 9d2c 813f 18c6 513f 92f2 6f3f
000001f0: ce73 643f 2fb7 7e3f 56e2 7d3f 0176 5e3f
00000200: ec2f 8a3f ec62 a13f c458 853f 106a 923f
00000210: abb3 683f 3a25 8b3f 139e 6a3f a332 8b3f
00000220: c95f 5b3f 98ba 823f 6554 6a3f f909 3d3f
00000230: 408f 8f3f 4a8b 7a3f 90a3 703f 9fe1 6f3f
00000240: a9d3 7f3f 8902 813f e068 8b3f 284c 673f
00000250: a24f 843f fd71 9c3f 9fb1 673f b971 8d3f
00000260: 433b 583f 407a 503f 38b2 6b3f 9665 523f
00000270: cba5 6d3f 8a7d 543f 85fc 8f3f 13c1 783f
00000280: 5265 563f 5059 593f 42e4 8c3f cd9b 7b3f
00000290: 8037 8d3f 450b 693f 1164 763f a375 783f
000002a0: c647 883f 14ef 8c3f 81c5 8f3f 475f 873f
000002b0: c977 8c3f 7757 873f 326d 4f3f 2c7a 813f
000002c0: a054 8e3f bd94 713f d1af 8c3f 10d3 973f
000002d0: b0eb 9d3f 6b36 8f3f a646 5f3f 5fde 5f3f
000002e0: 8b14 873f a299 653f 252f 363f 8a38 923f
000002f0: 9efd 973f 5f2d 733f b4a1 683f 26d9 843f
00000300: ea65 573f 7a30 853f 0276 963f 481a 813f
00000310: dce9 893f d1bc 8b3f b942 443f 8e10 913f
00000320: 7794 7c3f 2493 843f 21c7 683f 91b4 973f
00000330: 8eb5 703f a525 8c3f 6a52 8c3f 1bd4 7f3f
00000340: ee4d 3a3f d9eb 7a3f d18f 723f ef1f 533f
00000350: 5523 6d3f b1aa 4f3f 032e 913f bb6e 933f
00000360: ddcc 663f f7da 8b3f 400e 813f 3929 973f
00000370: bcb7 8c3f e8b7 753f 7a7b 933f 888a 6b3f
00000380: 74a7 803f 7f14 543f 66a3 a93f ed2f 863f
00000390: a7a2 733f a747 8b3f 44a3 893f 77c2 803f
000003a0: acde 873f 0c15 793f caa6 6f3f 2388 5f3f
000003b0: 1244 743f b669 883f b544 843f 4f17 7d3f
000003c0: 85f6 8d3f 98b9 7a3f 7145 5a3f 0ffc 823f
000003d0: 5ec8 893f 34b0 713f 36bf 723f 8e0e 6e3f
000003e0: f400 6e3f 4012 8b3f 731b 6f3f d17a 5d3f
000003f0: 2444 8d3f b292 663f 7066 923f 6062 623f
1.0298378 1.0155487 1.2059743 0.82743657 1.0387479 1.1553397 0.9583014 0.99418133
1.030937 1.0625787 1.1833745 1.0171292 0.9887186 0.967237 1.0541271 1.0513716
1.2745261 1.1433544 1.0664153 0.89822835 1.0564207 1.1276175 1.1234909 0.9280518
1.053092 1.0591165 1.0008693 0.9197063 0.95770764 1.1762897 0.853822 0.82074237
0.99534315 0.93355423 0.8879675 0.8580167 0.90873003 0.9121031 0.99008733 0.9885389
0.7590147 1.0807878 1.0725223 0.8952244 0.91658545 0.89843035 0.8686966 0.8573119
1.0187187 0.77598107 0.9511554 0.9723638 1.0042578 1.0175719 1.074784 0.8194707
1.2004075 0.8976669 1.168009 1.0585246 0.8259121 1.0159295 1.0664567 0.9779673
1.0142081 0.9068409 0.97275186 1.0199071 1.0365058 1.1514709 1.0170189 0.7521552
0.9993167 1.0227468 0.8046137 1.0188489 0.9699205 0.7527174 1.0222312 0.9587493
1.2004933 1.0763396 0.93087924 1.0960367 0.8149592 1.0534477 1.0426581 0.98959166
1.0891061 0.8384119 0.7341461 1.01912 0.8763046 0.9885231 1.0417557 1.0846022
0.9671676 0.74358606 0.85453236 0.8184954 0.79190874 1.0184873 1.0088631 0.7746705
0.90706235 0.92444927 1.0291039 0.9968638 0.968193 0.89393973 0.9718108 1.05228
1.0513155 0.91798496 0.867165 1.0391897 0.76500416 0.93288225 0.96914685 0.8618446
1.1957093 1.009174 0.8194289 0.9372951 0.89239204 0.99498266 0.99173486 0.8689881
1.0795875 1.2608314 1.0417714 1.1438618 0.9089915 1.0870736 0.9164745 1.0874828
0.8569303 1.0213194 0.91535026 0.7384334 1.1215591 0.9786879 0.93999577 0.93703645
0.9993234 1.0078899 1.089138 0.9035058 1.0336802 1.2222286 0.90505403 1.105033
0.84465426 0.8143654 0.92068815 0.8218626 0.92831105 0.8300406 1.1248938 0.9716961
0.8374835 0.84901905 1.1007159 0.9828461 1.1032562 0.9103282 0.9624644 0.970545
1.0646904 1.1010461 1.1232148 1.0575951 1.0974056 1.0573567 0.81025994 1.0115409
1.1119576 0.9436758 1.0991155 1.1861286 1.2337551 1.1188482 0.87217176 0.87448686
1.0553144 0.8968755 0.71165687 1.1423504 1.1874273 0.94991106 0.9087174 1.0378768
0.84139884 1.0405419 1.1754763 1.0086145 1.0774493 1.0916997 0.7666431 1.1333177
0.9866404 1.0357404 0.90928847 1.185198 0.9402703 1.0948988 1.0962651 0.9993302
0.7277516 0.98016125 0.94750696 0.824706 0.9263204 0.8111983 1.1342167 1.1518167
0.90156347 1.0926198 1.0082474 1.1809455 1.0993571 0.95983744 1.1522057 0.92008257
1.0051103 0.82843775 1.325299 1.0483376 0.9517006 1.0881242 1.075295 1.0059346
1.0614829 0.9729774 0.93613875 0.87317103 0.9541637 1.065726 1.0333468 0.9886369
1.1090857 0.97939444 0.8526221 1.0233172 1.0764272 0.9440949 0.94823015 0.9299096
0.92970204 1.0864944 0.9340126 0.8651553 1.103642 0.9006759 1.1437511 0.8843136

bn1.bias f4 [256]
00000000: d4bf a8bd 30d0 ce3c 15c2 e13d 75e6 85be
00000010: b7e4 8dbd ed18 a8bc 9427 77be 5aae 33be
00000020: b175 53be e0ca f43d 2bec 003e efdf 963b
00000030: d700 76bd e154 5dbe 68c0 12be 91bf 033e
00000040: 4465 243e 2d12 df3d 0367 a6bd 38d6 0bbe
00000050: c187 053d c576 a2bd 4d5b c83d e3df 7ebe
00000060: 708f 9ebc cdcf fbbd 7f76 30be 0a25 f5bd
00000070: af82 0cbd 009c e03d 663b 393d 9b41 f1bd
00000080: 6b2c 48bd 1bb7 0fbc ee9f 53be dd56 57be
00000090: fc5d 0bbe 9d6e aabc 70f1 0d3d aa8d 78bd
000000a0: 8bb6 5cbe 4f1e d13d d806 033d 1ac9 003c
000000b0: a857 adbd 03df 48be 8bb5 bb3c e913 53be
000000c0: 857a 12be 025b bc3c 85e7 cfbd 10e1 9cbd
000000d0: 4eeb 9dbd f460 26bd 1e88 e33d 4b97 64be
000000e0: 8169 ab3d 5cda 1dbc 598c 083d 9947 69bd
000000f0: a85b 0fbe 9fa3 5fbd fd5f 30be 5e88 f13b
00000100: 569b 3e3e 8c91 483d 3820 9f3d 53cc 1ebd
00000110: 031a 04be c4ea 9f3d c37a dbbc 0ee5 09be
00000120: 9e50 263e 3e52 433d 83c8 a1be 67a9 e0bd
00000130: a251 e2bc 77ca 58be 4f7b aabd 0049 53bd
00000140: 7a35 983d 4156 933d a877 9bbd 70e3 99bd
00000150: f6d3 4abe 0108 e8bd a1cd 9abc 7e35 3e3c
00000160: 7253 8e3d 7344 03be 20ad 1bbe e0ac 4c3e
00000170: c9af 10be e3f6 b9bd b50a 033e 0a14 23bd
00000180: b55e 21be 71d5 1ebe 0055 10be 7e50 36be
00000190: cee9 8cbd 8145 df39 7fca 1e3d 1d48 93be
000001a0: 796f 12bc 81d0 3dbe 2d00 1b3e 5904 3ebd
000001b0: f229 5dbd c61c 1ebe 3fc4 5cbe ef2d d03d
000001c0: 270d be3c 706e 09be 76dc cdbc 4faa 3dbe
000001d0: bdc0 c5bc c35b 85be 87a3 563c e084 21be
000001e0: 20af a83c 675f 033e aeef b2be 94f2 063d
000001f0: 9833 76be 4e1d f5bd c22a 06be 7671 34be
00000200: 6395 ca3c 21d1 413e b503 083d 0742 93bd
00000210: dcbc b23c 5a0e 303c f7c4 0a3d a5e7 cbbd
00000220: 822a f03c 1443 2dbc 64d0 f9bd 82d2 72be
00000230: e958 113e ac69 77be 9d7a f1bd 4316 90bd
00000240: 3804 163e 169c 1f3b 2cdc 593d c77a 0fbe
00000250: b258 8ebd d0d7 d2bd d3d9 a4be 9eb3 ea3d
00000260: 0163 23be 7254 5b3c d0b0 00be c09c b83c
00000270: 8fc0 09bd e50b 08be 0fa8 b9bd 120b 30bb
00000280: ed0b 07bd 0e88 67be bbca 003d 72ed 25be
00000290: a14f 9c3d 0778 893c 61a3 f0bd a08f 4cbe
000002a0: f819 0c3d b9a3 443e 8468 aa3d c933 d23d
000002b0: c2f1 8e3d f9a6 38bc ca48 07be 7876 0fbd
000002c0: 7557 64bd e4f9 a2bd 6fe9 933d 41e5 603d
000002d0: f3b4 743d abc7 f63c c98a d3bd 5132 12be
000002e0: 513b 88bc 5c9d 8bbe 965c 3fbe f21d a03d
000002f0: b371 b03d 41f1 c9bd bbb7 c9bc 1d9c 233d
00000300: dcf7 03be 03e3 fabb bcf5 e83d f211 9abc
00000310: ae05 a83b daa1 f53d b675 aabd 1d3c 513c
00000320: e1ac da3c f0b5 92bc 4130 8abe e111 b43d
00000330: b458 74be 059f 023e 644d 883d fffd 23be
00000340: f5e2 11be 0635 33be 35ae 26be 8471 01be
00000350: 5873 54bd 063f 05be 9081 9d3d d3c7 c03d
00000360: bcb3 a93c 00eb ed3c 2108 013d 219c b53b
00000370: 6ece cb3d 01f2 39bd e5dc aa3d 6afa a33c
00000380: ad36 f5bd 082c 24be 6c7c 803e cf0b 3e3e
00000390: 7d13 bb3c 5ff1 4fbd 98cb e9bc cdd9 013b
000003a0: 427d 07bd a5a2 01be de5d 81bb b5ef 82be
000003b0: a7e7 24be fd16 863d 3c35 b0bd 0806 90bd
000003c0: 06d4 453d 1ea8 16be 9b90 21be 85d5 3b3e
000003d0: 836c 913d dda9 953b 8c0e 2a3d b11e 2dbd
000003e0: ed74 1abe 48f4 bcbb 3a68 5abd 1772 41be
000003f0: 32a0 9f3d f3ff 3cbe 954e 38bc 776a d8bd
-0.08239713 0.025245756 0.11023346 -0.26152387 -0.069283895 -0.020519698 -0.24136192 -0.17546979
-0.20650364 0.11952758 0.12590091 0.0046043317 -0.060059395 -0.2161441 -0.1433121 0.12866046
0.16054255 0.10892139 -0.08125117 -0.13655937 0.03260017 -0.0793281 0.09783039 -0.24890094
-0.019355506 -0.12295494 -0.17232703 -0.11969955 -0.034304317 0.10967255 0.045222662 -0.117800914
-0.048870485 -0.008771683 -0.20666477 -0.2102923 -0.13610071 -0.020804698 0.03465408 -0.060681976
-0.2155401 0.10210859 0.03198895 0.007860446 -0.08463985 -0.19616322 0.022913715 -0.20613064
-0.1430455 0.022992615 -0.10151581 -0.07660115 -0.077108964 -0.040619805 0.11109947 -0.22323339
0.08369733 -0.00963458 0.03333697 -0.056953046 -0.13999808 -0.0545994 -0.17224117 0.0073709926
0.18613943 0.04896693 0.07769817 -0.038769078 -0.12900548 0.0780845 -0.026791936 -0.13466284
0.1624169 0.047685854 -0.3159829 -0.10969811 -0.027626816 -0.21170984 -0.083243005 -0.05158329
0.07432075 0.07194186 -0.07591182 -0.075140834 -0.19807419 -0.113296516 -0.01889688 0.011609433
0.0694951 -0.1281908 -0.1520276 0.19987822 -0.14129557 -0.09080293 0.12797053 -0.039814033
-0.15758784 -0.15511109 -0.14094925 -0.17804143 -0.06880532 0.0004258566 0.038767334 -0.28765956
-0.00893771 -0.18536569 0.15136786 -0.046390865 -0.05399508 -0.15440664 -0.21559237 0.10165011
0.02319963 -0.13421035 -0.025129538 -0.18521999 -0.024139756 -0.2604657 0.013100511 -0.15773344
0.020591319 0.12829362 -0.34948486 0.032946184 -0.24043119 -0.1196848 -0.13102248 -0.17621407
0.024729436 0.18927433 0.03320666 -0.07190328 0.02181857 0.010745609 0.033879247 -0.09956292
0.029317144 -0.010575075 -0.121979505 -0.23713115 0.14194073 -0.24161404 -0.11790965 -0.07035496
0.14650047 0.002435451 0.053188488 -0.1401168 -0.06950511 -0.10295069 -0.32197437 0.114600405
-0.15955736 0.013386833 -0.12567449 0.022535682 -0.033630904 -0.13285787 -0.09065258 -0.0026862067
-0.032970358 -0.22610494 0.03144334 -0.1620386 0.076323755 0.016780866 -0.11749912 -0.19976664
0.034204453 0.1920308 0.08320716 0.102637835 0.069797054 -0.011270278 -0.1321136 -0.03502509
-0.055747468 -0.07957819 0.07222258 0.054906134 0.05974288 0.030124506 -0.103292055 -0.14277007
-0.016629847 -0.27268493 -0.18687662 0.078182116 0.086154364 -0.09860469 -0.024623742 0.039943803
-0.1288752 -0.0076564564 0.11374995 -0.018807385 0.00512763 0.11993761 -0.08323233 0.01277068
0.026693763 -0.01790902 -0.2698994 0.08792473 -0.23861963 0.12755974 0.06655386 -0.1601486
-0.14246733 -0.17500696 -0.16277392 -0.12640959 -0.051867813 -0.13012323 0.07690728 0.094131134
0.020715587 0.02904272 0.031501893 0.0055422937 0.09951483 -0.04539681 0.083429135 0.020016868
-0.11973319 -0.16032422 0.25094926 0.18559192 0.022836441 -0.0507673 -0.028539464 0.0019813657
-0.03307844 -0.126597 -0.0039479574 -0.25573507 -0.16103993 0.065473534 -0.08603904 -0.070324
0.048297904 -0.14712569 -0.15777819 0.1834317 0.07100775 0.0045673684 0.04151778 -0.042265598
-0.15083666 -0.0057664253 -0.053322054 -0.18891178 0.07794227 -0.18457012 -0.011249204 -0.105671816

bn1.running_mean f4 [256]
00000000: 4c35 78bf 4f3c 7bbf c83b b3bf 7a08 83bf
00000010: 1e7c 9cbf 1f2c 9dbf 7e96 84bf 853e a8bf
00000020: cbc0 a7bf 8ab5 80bf 2e7a 41bf 8724 9ebf
00000030: a1a0 4cbf 5696 a7bf 6c36 11bf 5ec3 8cbf
00000040: dca6 ebbf 631c 8ebf 1726 2ebf 1405 4fbf
00000050: 6c2d 5dbf e894 5ebf 43b1 94bf e242 97bf
00000060: ed8d 35bf 1477 c6bf ebf8 0abf 888b 7abf
00000070: 7e06 17bf 0d9a 22bf f254 a1bf f667 37bf
00000080: 25ad 04bf 7952 81bf d80f 5fbf 3d65 babf
00000090: a566 47bf 7ca6 3fbf 2b3f c2bf dfb1 06bf
000000a0: ef70 b5bf e541 10c0 f3e6 ffbe c093 84bf
000000b0: e1b3 16bf 6641 a8bf c419 87bf 90c7 a3bf
000000c0: f19d 95bf e733 dfbf 2363 8ebf 5b28 9ebf
000000d0: d742 07bf 9ee7 b1bf 3bdd e0bf c8b6 bfbf
000000e0: f64b b4bf b62e ddbf d270 9fbf d31f 42bf
000000f0: b321 46bf 15c2 99bf 5e72 a9bf 102a 2ebf
00000100: bb90 a2bf 549b 9ebf cf0e d4bf f859 01bf
00000110: fc2c 01bf 2e76 aabf b578 83bf 8a22 11bf
00000120: c274 65bf 3273 15c0 5866 8cbf 15ec 30bf
00000130: 82e2 6fbf 6fde c0bf 55a1 ddbe a65c b0bf
00000140: eba8 d9bf e206 69bf 247e 66bf 1a54 a7be
00000150: 3887 6ebf 48da 91bf 03a8 6ebf d254 9dbf
00000160: 980e 7ebf 538d 0dbf 4494 d1bf a518 a2bf
00000170: 889e 73bf 1b0b 59bf 7e8d 8fbf b757 68bf
00000180: b9a5 18bf 0561 dfbf 3a20 afbf 1171 52bf
00000190: 2552 eebf 9108 a6bf f229 bcbf a120 82bf
000001a0: aada d0bf 44a6 80bf ea84 87bf 8033 f2be
000001b0: 754f 96bf a700 8cbf 8c94 33bf 9f78 5dbf
000001c0: b241 8fbf eafd 94bf 7e60 d6be fd25 8bbf
000001d0: 1f7d a3bf 400f 46bf ce80 51c0 94b0 6ebf
000001e0: a7b3 56bf 56b9 b7bf d51e 55bf 35e9 93bf
000001f0: 51b2 8cbf d870 a4bf 4a76 b2bf 533b 8ebf
00000200: 8b11 a1bf 60c2 5b3e 32c5 1ec0 e85d 673e
00000210: dd1f bebf c865 0ac0 7ca0 a4bf 809b 0a3e
00000220: 2dfa d3bf 32d3 32bf addf 44bf 3693 b2bf
00000230: 9668 babf 3c24 41bf 6596 97bf d1a4 72bf
00000240: 2429 cfbf d267 51bf cd48 0bc0 0833 24bf
00000250: 84a1 b9bf bb8a b33e bbb0 61bf 1f99 a1bf
00000260: 86ca 37bf 18a2 aebf 9a83 8ebf 6a93 c8bf
00000270: 6441 83bf 6646 30bf 7110 9bbf 3874 9fbf
00000280: a2c4 43bf c984 06bf 952e bbbf 21fb 88bf
00000290: 786e babf e3eb acbf 699b a5bf 067c b5bf
000002a0: b086 acbf e38a 96bf eb7e b7bf 8afc 8cbf
000002b0: af16 adbf e0d2 82bf 9df2 adbf 9496 23bf
000002c0: 519c 52bf f49c 80bf c38c 6abf e68a 83bf
000002d0: 47b9 99bf a4b2 b8bf ceb8 02bf 03bd 13bf
000002e0: e3e1 67bf ff73 9abf a54a fdbf 531d c5bf
000002f0: ab66 a5bf f721 cfbf be07 1bbf 4ffb ccbf
00000300: 9b33 80bf d720 1dbf 7314 9ebf d750 c2bf
00000310: ec58 7bbf 4f32 c9bf 51de b3bf a78d 8abf
00000320: 002c b5bf 9d3a a9bf 0717 83bf ec1c a0bf
00000330: 9776 a1bf 2c5e 9b3d 704d 3abf 48d3 37bf
00000340: ff0c 81bf 02a8 aebf d79a a5bf 943b 25bf
00000350: e849 a1bf dc23 88bf d1e8 7cbf 3033 843e
00000360: 7a65 08c0 35c7 a1bf 9078 bbbf fb54 cbbf
00000370: b6f6 b1bf ef12 a9bf a96f 5fbf e98b ddbf
00000380: fb16 5dbf 3bd7 35bf 28a5 e6be e125 c0bf
00000390: a52c a0bf 4b38 93bf 3b46 19bf 19d1 96bf
000003a0: 1e25 56bf 6c31 22bf 9743 b6bf 5ef6 2dbf
000003b0: 166b 82bf 38fb 46bf 6903 febe 584e 87bf
000003c0: acd1 46bf 69a9 adbf 1393 5bbf 6d4b b6bf
000003d0: b91c 45bf 7f5d 55bf c717 9fbf fc73 87bf
000003e0: 13ba 90bf e9a7 56be aca7 78bf a88a 89bf
000003f0: 838e 90bf 4689 a6bf ac54 68bf be73 75be
-0.96956325 -0.981389 -1.4002619 -1.0236962 -1.2225378 -1.227909 -1.0358427 -1.314408
-1.3105711 -1.0055401 -0.75577056 -1.2354897 -0.799326 -1.3092754 -0.56723666 -1.0997121
-1.8410296 -1.1102413 -0.6802687 -0.80867124 -0.86397433 -0.8694596 -1.1616596 -1.1817286
-0.70919687 -1.550509 -0.5428607 -0.9786916 -0.5899428 -0.6351631 -1.2604048 -0.71643007
-0.518267 -1.0103294 -0.8713355 -1.4562145 -0.77891 -0.7486341 -1.5175527 -0.5261516
-1.417509 -2.254022 -0.49980888 -1.035759 -0.58868223 -1.3144958 -1.0554738 -1.2795277
-1.1688825 -1.7437714 -1.1124004 -1.2356066 -0.52836365 -1.3898809 -1.7567514 -1.4977655
-1.4085681 -1.727988 -1.2456305 -0.7582981 -0.7739517 -1.2012354 -1.3238027 -0.6803293
-1.2700418 -1.2391152 -1.6567019 -0.50527906 -0.50459266 -1.3317316 -1.0271212 -0.5669333
-0.89631283 -2.335156 -1.0968733 -0.6911023 -0.93705 -1.5067881 -0.4328715 -1.3778274
-1.7004675 -0.9102613 -0.90036225 -0.32681352 -0.9317508 -1.1394739 -0.93225116 -1.229151
-0.9924102 -0.5529377 -1.6373372 -1.2663771 -0.95163774 -0.8478257 -1.1215055 -0.9075884
-0.5962787 -1.7451483 -1.368171 -0.82203776 -1.8618819 -1.2971364 -1.4700301 -1.0166208
-1.6316731 -1.005074 -1.0587437 -0.47304916 -1.1742998 -1.0937699 -0.7014854 -0.8651218
-1.1191924 -1.1639988 -0.41870493 -1.0870968 -1.2772559 -0.7736702 -3.2734866 -0.93238187
-0.8386788 -1.4353435 -0.8325017 -1.1555544 -1.0991918 -1.2846937 -1.3942349 -1.1111854
-1.2583479 0.21460867 -2.4807858 0.22594416 -1.4853474 -2.1624622 -1.2861476 0.13535881
-1.6560723 -0.6985351 -0.769038 -1.3951175 -1.4563167 -0.75445914 -1.1842772 -0.9478274
-1.618443 -0.8179904 -2.1763184 -0.6414037 -1.4502416 0.3506678 -0.88160294 -1.2624854
-0.717934 -1.3643217 -1.1133912 -1.5669987 -1.0254331 -0.6885742 -1.2114393 -1.2457342
-0.7647191 -0.52546364 -1.4623591 -1.0701638 -1.4564962 -1.3509487 -1.2938052 -1.4178474
-1.3478603 -1.1761135 -1.4335607 -1.1014569 -1.3522547 -1.0220604 -1.3589665 -0.6390164
-0.8226977 -1.0047898 -0.91621035 -1.0276763 -1.2009667 -1.4429517 -0.5106324 -0.57710284
-0.9057905 -1.2066649 -1.9788405 -1.5399574 -1.2921957 -1.618224 -0.6055869 -1.6014193
-1.0015749 -0.61378235 -1.2349991 -1.518092 -0.9818256 -1.5718478 -1.405222 -1.0824479
-1.4154053 -1.3221012 -1.0241402 -1.2508826 -1.2614316 0.07586321 -0.7277441 -0.71806765
-1.0082091 -1.3645022 -1.2937878 -0.64544034 -1.2600679 -1.0635943 -0.9879275 0.25820303
-2.1311936 -1.2638918 -1.4646168 -1.5885309 -1.3903415 -1.3208903 -0.87279755 -1.7308322
-0.8636319 -0.7103154 -0.4504788 -1.501156 -1.2513624 -1.1501554 -0.5987279 -1.1782562
-0.83650386 -0.6335666 -1.4239377 -0.6795405 -1.018893 -0.7772708 -0.49611977 -1.0570784
-0.77663684 -1.3567325 -0.8577129 -1.4241768 -0.7699695 -0.8334579 -1.2429131 -1.0582271
-1.1306785 -0.2096249 -0.97130847 -1.074544 -1.1293491 -1.3010643 -0.907542 -0.23969933
