src/snake_model.pth (torch, 38512 bytes, 6 tensors)

fc1.weight f4 [64, 9]
-0.5099098 -0.08094067 -18.063074 -8.132678 -14.460532 5.665876 2.0290067 5.538907
5.666376 1.0367843 0.56793255 -19.63032 -10.599218 -14.020746 6.0734572 6.3299017
7.2251673 5.12203 -0.43135554 0.040039733 -15.306114 -6.41582 -11.626294 4.70078
-1.2770445 3.9284675 2.4706972 1.625244 0.9862343 -19.828588 -10.136969 -14.513111
7.016342 6.7544975 7.043152 4.5933557 -0.3310322 1.1694145 -12.119186 0.025695482
-6.0755324 6.7521324 -3.611836 2.2744694 -0.7366505 -0.40347224 0.13268289 -17.704927
-10.082128 -13.393074 1.2724777 4.593485 4.526773 4.2866673 1.1575565 0.3667831
-19.657362 -10.647297 -14.288351 5.80223 6.007122 6.5538583 4.4088516 -0.5561578
0.021475777 -18.546154 -9.082821 -14.410762 4.449746 3.4535973 3.264088 3.1713634
1.1176145 0.4936475 -19.7041 -10.56123 -14.099584 6.3381023 6.4572725 6.7026234
4.791354 -0.48403552 -0.026630532 -17.632301 -8.280905 -14.393162 5.2382126 2.3146384
5.3752866 5.487563 1.3946031 1.0176105 -19.438599 -10.414035 -14.502521 6.859602
6.5908194 7.460568 4.5522847 -0.1847553 -0.100007266 -15.707249 -8.124167 -11.504001
2.2228098 0.045697454 1.7018325 6.218776 -0.48872116 -0.3454485 -13.531606 -3.848181
-9.323342 5.5102186 3.4747071 3.4501038 1.7857119 1.2131444 0.38830033 -19.682034
-10.045873 -14.000474 5.8910656 6.523993 7.0281234 4.957356 -0.46337146 -0.11545814
-16.337786 -5.5123515 -13.600173 6.9515476 4.6445365 3.679106 3.3409972 1.6510175
0.9839621 -19.874544 -9.92033 -14.144066 6.7397585 6.8053083 7.518927 4.7068315
0.8562423 0.61909324 -20.141148 -10.551109 -14.508271 6.3358455 6.19444 6.804413
5.35421 -0.5209165 -0.05205188 -16.210384 -6.8822327 -12.98742 4.781111 2.4325147
3.8607917 4.1432185 1.4955899 0.884726 -19.579777 -9.864663 -14.026455 6.8378935
6.23333 7.0364885 4.5464497 1.3132926 0.97268176 -19.869375 -10.323199 -14.596617
6.531768 6.320228 6.9895034 4.9723954 -0.48019868 0.10644017 -15.63299 -9.060356
-13.434827 2.7514677 1.2378259 5.127652 7.6170635 1.3028947 0.6871367 -20.019966
-9.933666 -14.638059 6.2405033 6.4284096 7.3515124 4.553564 -0.45703912 0.0062564686
-17.912712 -8.456385 -14.447433 5.792381 2.5138013 5.221918 5.2571187 1.0424513
0.7758172 -19.760681 -10.0063 -14.207948 6.2213955 6.4649 6.9448023 4.5322957
-0.19734761 0.09735896 -14.97443 -7.975658 -11.623363 1.8253233 -1.1811054 2.191824
7.1657157 1.081457 0.4629174 -19.811203 -10.491668 -14.259949 5.9722924 6.500012
7.0197115 4.63703 -0.29024428 0.16084275 -13.23196 -6.7156363 -11.856473 1.418867
-1.0711735 3.6848576 8.209618 -0.025988622 0.8922529 -14.244215 -4.1046305 -6.096683
6.4133706 1.2807585 3.3231468 1.1503191 1.2402796 0.44899398 -19.872198 -10.615797
00000000: 7389 02bf 39c4 a5bd 2d81 90c1 731f 02c1
00000010: 575e 67c1 db4e b540 3fdb 0140 ba3e b140
00000020: f452 b540 59b5 843f 0764 113f e50a 9dc1
00000030: 6696 29c1 fa54 60c1 c359 c240 8e8e ca40
00000040: 9234 e740 abe7 a340 a2da dcbe b400 243d
00000050: d8e5 74c1 664e cdc0 4d05 3ac1 ca6c 9640
00000060: 3276 a3bf 036c 7b40 e71f 1e40 ff07 d03f
00000070: da79 7c3f f3a0 9ec1 0631 22c1 b435 68c1
00000080: e085 e040 d824 d840 8061 e140 c5fc 9240
00000090: 0d7d a9be 60af 953f 30e8 41c1 557f d23c
000000a0: c36a c2c0 7811 d840 5228 67c0 e890 1140
000000b0: 2195 3cbf ea93 cebe 06de 073e b1a3 8dc1
000000c0: 6550 21c1 084a 56c1 8de0 a23f d4fd 9240
000000d0: 53db 9040 612c 8940 d02a 943f ffca bb3e
000000e0: 4742 9dc1 545b 2ac1 169d 64c1 deab b940
000000f0: 583a c040 35b9 d140 5015 8d40 5c60 0ebf
00000100: f8ed af3c 865e 94c1 3c53 11c1 7b92 66c1
00000110: 5264 8e40 bd07 5d40 d1e6 5040 9ef7 4a40
00000120: fe0d 8f3f 5dbf fc3e ffa1 9dc1 ccfa 28c1
00000130: e597 61c1 bcd1 ca40 faa1 ce40 e47b d640
00000140: c652 9940 81d3 f7be 4628 dabc f40e 8dc1
00000150: 967e 04c1 644a 66c1 709f a740 0923 1440
00000160: 5902 ac40 1e9a af40 5b82 b23f 1041 823f
00000170: 4082 9bc1 e39f 26c1 530a 68c1 dc81 db40
00000180: fee7 d240 f9bc ee40 51ac 9140 7e30 3dbe
00000190: 9cd0 ccbd e450 7bc1 97fc 01c1 6310 38c1
000001a0: 8442 0e40 412d 3b3d a6d5 d93f 3700 c740
000001b0: a939 fabe a0de b0be 7581 58c1 9948 76c0
000001c0: 692c 15c1 b653 b040 9a61 5e40 80ce 5c40
000001d0: 3592 e43f 5148 9b3f 4dcf c63e ce74 9dc1
000001e0: e5bb 20c1 f101 60c1 9c83 bc40 8dc4 d040
000001f0: 63e6 e040 a9a2 9e40 063f edbe 5175 ecbd
00000200: c9b3 82c1 2f65 b0c0 4f9a 59c1 1473 de40
00000210: 0ba0 9440 7976 6b40 e6d2 5540 8b54 d33f
00000220: f1e4 7b3f 11ff 9ec1 acb9 1ec1 184e 62c1
00000230: 1aac d740 16c5 d940 0d9b f040 5d9e 9640
00000240: b232 5b3f e57c 1e3f 1221 a1c1 58d1 28c1
00000250: e121 68c1 3fbf ca40 da38 c640 c0bd d940
00000260: b055 ab40 c95a 05bf 5a34 55bd deae 81c1
00000270: 403b dcc0 79cc 4fc1 dcfe 9840 52ae 1b40
00000280: 3617 7740 3f95 8440 7d6f bf3f 677d 623f
00000290: 62a3 9cc1 a9d5 1dc1 5c6c 60c1 06d0 da40
000002a0: 7077 c740 ea2a e140 847c 9140 f919 a83f
000002b0: ac01 793f 7bf4 9ec1 d32b 25c1 be8b 69c1
000002c0: 3e04 d140 4f3f ca40 03aa df40 dd1d 9f40
000002d0: 9adc f5be 4efd d93d ba20 7ac1 38f7 10c1
000002e0: 0df5 56c1 0c18 3040 1471 9e3f ba15 a440
000002f0: fcbe f340 41c5 a63f 31e8 2f3f e428 a0c1
00000300: 4cf0 1ec1 7d35 6ac1 34b2 c740 88b5 cd40
00000310: 973f eb40 ccb6 9140 0801 eabe 1003 cd3b
00000320: 3c4d 8fc1 5a4d 07c1 b028 67c1 2f5b b940
00000330: 1fe2 2040 f419 a740 513a a840 0b6f 853f
00000340: f59b 463f e015 9ec1 ce19 20c1 c153 63c1
00000350: ac15 c740 76e0 ce40 d23b de40 9108 9140
00000360: 7e15 4abe 2264 c73d 4497 6fc1 9738 ffc0
00000370: 4bf9 39c1 32a4 e93f 762e 97bf d846 0c40
00000380: 8b4d e540 2f6d 8a3f 8203 ed3e 587d 9ec1
00000390: dfdd 27c1 c028 64c1 051d bf40 1900 d040
000003a0: 7aa1 e040 8d62 9440 e69a 94be f6b3 243e
000003b0: 1cb6 53c1 7ee6 d6c0 1db4 3dc1 6f9d b53f
000003c0: 371c 89bf b5d4 6b40 985a 0341 17e6 d4bc
000003d0: b06a 643f 4ee8 63c1 2259 83c0 0718 c3c0
000003e0: 553a cd40 e5ef a33f 70ae 5440 a83d 933f
000003f0: 7bc1 9e3f 8ae2 e53e 43fa 9ec1 4eda 29c1

fc1.bias f4 [64]
2.1762848 2.864173 -0.9579596 3.1324618 -1.207249 0.64393646 2.4159822 0.2534645
2.451914 2.2038853 3.2005725 -1.3572806 2.2491999 3.111838 2.7561147 3.285141
2.7119482 1.3933203 2.995497 3.1207538 1.0904108 2.9320335 2.5967615 3.2395952
-0.002587433 2.4259012 -0.7561246 0.21143293 2.2956424 2.7589767 0.8812023 0.764036
2.733345 2.903555 2.8310719 2.1053057 2.9670892 3.0079515 3.310605 2.5109072
-0.14759444 3.288815 -0.16960487 2.5451887 2.2828426 -0.8364168 2.5233872 2.1385126
3.1767607 -1.2951242 3.1979814 3.45286 2.5679643 0.8429053 2.2683702 2.8506618
2.9122424 3.4706154 2.9085343 2.7224736 2.9479232 2.7929945 8.284107 2.303891
00000000: 4048 0b40 9c4e 3740 d73c 75bf 417a 4840
00000010: 2387 9abf 05d9 243f 749f 1a40 19c6 813e
00000020: 29ec 1c40 750c 0d40 2ed6 4c40 5fbb adbf
00000030: e4f2 0f40 5b28 4740 2f64 3040 c03f 5240
00000040: 8f90 2d40 5258 b23f 39b6 3f40 6eba 4740
00000050: 9592 8b3f 70a6 3b40 5731 2640 8755 4f40
00000060: ec91 29bb f741 1b40 6291 41bf e081 583e
00000070: ceeb 1240 1393 3040 7996 613f dd97 433f
00000080: 20ef 2e40 d8d3 3940 4830 3540 54bd 0640
00000090: cae4 3d40 4782 4040 f4e0 5340 b4b2 2040
000000a0: ff22 17be f27b 5240 e6ac 2dbe 5fe4 2240
000000b0: 181a 1240 691f 56bf 2d7f 2140 64dd 0840
000000c0: 0c50 4b40 a1c6 a5bf baab 4c40 a9fb 5c40
000000d0: 8759 2440 a4c8 573f fa2c 1140 3e71 3640
000000e0: 2e62 3a40 901e 5e40 6d25 3a40 023d 2e40
000000f0: c6aa 3c40 6cc0 3240 b48b 0441 f372 1340

fc2.weight f4 [64, 64]
2.3609693 2.0661108 1.6856254 1.4207734 3.16928 4.010629 2.120132 3.0368538
2.1414301 2.0799823 1.5597821 2.2251866 1.4928087 1.9799874 2.0735438 1.577589
2.291211 1.7794181 1.5875072 1.7872179 2.7473295 1.9287636 2.1446493 1.9283684
3.7406538 2.2755141 4.209743 -0.22099434 2.0102556 2.1340277 1.9944167 2.210855
2.1116827 1.8574837 1.8982662 2.242337 1.5574895 1.984454 1.9386703 2.3627443
4.027841 1.7575895 3.6946409 2.322809 2.3132374 3.3039775 2.6369908 2.5326457
1.5467633 0.90054935 1.6254966 1.6479127 2.3778768 2.7197306 2.5746827 1.73532
1.9369092 1.6483696 2.1028652 1.7881943 1.9085689 1.9614756 15.693328 2.9970856
1.9192857 0.051208492 3.1756828 0.074220315 5.7189927 2.0483243 -0.16785185 1.5853717
-0.015798729 1.8339869 -0.04156786 2.3937304 5.729388 -0.056878738 2.946828 -0.07016629
0.10495398 2.7363746 -0.11645141 -0.0036243768 4.2084155 -0.14617983 1.916246 0.01895871
3.4793015 -0.014459226 3.7363195 5.4645658 -0.18696137 -0.14534009 3.8209963 1.7821205
-0.16839953 -0.04989309 0.050584003 2.0820794 0.06409245 0.041280415 0.031643093 0.03256613
1.7455949 -0.11358347 2.1613975 -0.0073638214 1.9700128 3.6473978 0.17736794 -0.11665365
-0.0711576 0.34037632 0.11633827 0.092204124 -0.1289158 4.241186 -0.07933489 0.33197954
-0.15970814 -0.046031896 -0.20252565 -0.11322415 -0.14274682 -0.15922303 11.530122 0.10824218
-0.16567513 -0.2287264 -0.028046265 -0.4030019 -0.11493519 0.0862782 -0.250242 -0.092029676
-0.22644626 -0.22078797 -0.2771718 -0.096587315 -0.2666067 -0.29228145 -0.08285554 -0.1543211
-0.18067673 -0.33570147 -0.37363473 -0.23646414 -0.1711636 -0.27814475 -0.32720795 -0.2901809
0.047665134 -0.1670516 -0.1141815 0.013977438 -0.36776352 -0.2900741 -0.2849649 -0.3811108
-0.21759449 -0.21212012 -0.38588572 -0.35800117 -0.246356 -0.2485955 -0.27203754 -0.37834966
-0.07087402 -0.24258989 0.047730833 -0.20676777 -0.30417302 0.07523711 -0.3908841 -0.32141986
-0.23167348 -0.09797928 -0.38799652 -0.30258575 -0.3216599 -0.39566514 -0.37739477 -0.16453376
-0.18010065 -0.36160484 -0.23275195 -0.38546354 -0.17165898 -0.3703807 -0.062337294 -0.30071878
0.0522874 -0.039863065 -0.1701605 0.10947429 -0.19997111 -0.27962255 -0.031854972 -0.18796147
-0.022230342 -0.122376084 0.0790046 -0.28094724 -0.23259944 -0.09364654 -0.1747114 -0.122646585
-0.114100784 -0.14396532 -0.0640344 -0.056114584 -0.06387408 -0.123079956 -0.03981182 0.03267403
0.07773575 -0.064616576 -0.23987071 -0.010601714 0.11438167 -0.09662582 -0.3604936 -0.08034442
0.09897745 0.11538343 -0.10626559 -0.030984998 0.041181996 0.08905624 -0.019273743 -0.11422695
-0.1613437 -0.0758414 0.06608723 0.08645363 0.097429454 -0.21252786 0.01035589 -0.123085156
-0.07435222 -0.3508863 -0.078944206 0.025974452 0.06261715 -0.076877564 -0.061738476 0.12017356
-0.003615722 0.01283811 -0.089445055 -0.114389986 -0.04593712 -0.009207979 -0.25377923 -0.063185796
00000000: 1f1a 1740 293b 0440 93c2 d73f e7db b53f
00000010: 7cd5 4a40 1357 8040 3eb0 0740 d05b 4240
00000020: 310d 0940 6e1e 0540 f1a6 c73f 7569 0e40
00000030: 5b14 bf3f 3a70 fd3f f1b4 0440 70ee c93f
00000040: 33a3 1240 f9c3 e33f 7033 cb3f 8ec3 e43f
00000050: 3fd4 2f40 bae1 f63f ef41 0940 c7d4 f63f
00000060: df66 6f40 06a2 1140 37b6 8640 574c 62be
00000070: 07a8 0040 e993 0840 0c49 ff3f a67e 0d40
00000080: cf25 0740 07c2 ed3f 63fa f23f 7382 0f40
00000090: d15b c73f 9702 fe3f 5926 f83f 3437 1740
000000a0: 13e4 8040 b1f8 e03f ff74 6c40 e7a8 1440
000000b0: 150c 1440 5e74 5340 75c4 2840 de16 2240
000000c0: 57fc c53f 678a 663f 4610 d03f ceee d23f
000000d0: 222f 1840 1110 2e40 9ac7 2440 f71e de3f
000000e0: a4ec f73f c6fd d23f 5895 0640 8de3 e43f
000000f0: fc4b f43f a211 fb3f df17 7b41 40d0 3f40
00000100: 27ab f53f ffbf 513d 633e 4b40 d200 983d
00000110: fd01 b740 bf17 0340 5be1 2bbe 76ed ca3f
00000120: 566c 81bc 15c0 ea3f 0f43 2abd e132 1940
00000130: 2657 b740 aef9 68bd d498 3c40 58b3 8fbd
00000140: 1df2 d63d c320 2f40 147e eebd f486 6dbb
00000150: 57ab 8640 2ab0 15be 8d47 f53f 4c4f 9b3c
00000160: e0ac 5e40 64e6 6cbc dc1f 6f40 b9dd ae40
00000170: cd72 3fbe 08d4 14be 348b 7440 861c e43f
00000180: ed70 2cbe b25c 4cbd 2c31 4f3d ca40 0540
00000190: e742 833d a715 293d 309c 013d 1064 053d
000001a0: a76f df3f 739e e8bd 5654 0a40 364c f1bb
000001b0: 6129 fc3f f76e 6940 f19f 353e 1ce8 eebd
000001c0: 13bb 91bd ce45 ae3e c242 ee3d 84d5 bc3d
000001d0: 8102 04be ccb7 8740 557a a2bd 39f9 a93e
000001e0: 888a 23be f18b 3cbd e262 4fbe 10e2 e7bd
000001f0: 392c 12be 5d0b 23be 617b 3841 13ae dd3d
00000200: bea6 29be 4137 6abe 48c1 e5bc 4456 cebe
00000210: 2463 ebbd a0b2 b03d b81f 80be 0e7a bcbd
00000220: 87e1 67be 3e16 62be 76e9 8dbe 92cf c5bd
00000230: ac80 88be eaa5 95be 2ab0 a9bd 5a06 1ebe
00000240: 5203 39be 10e1 abbe 0d4d bfbe a823 72be
00000250: 8345 2fbe fd68 8ebe cd87 a7be 9792 94be
00000260: 843c 433d 930f 2bbe fed7 e9bd a001 653c
00000270: 804b bcbe 9884 94be ebe6 91be f420 c3be
00000280: 17d1 5ebe 0436 59be d092 c5be ee4b b7be
00000290: bf44 7cbe d28f 7ebe 8148 8bbe 0cb7 c1be
000002a0: 6626 91bd 7c69 78be 6881 433d eeba 53be
000002b0: 91bc 9bbe ea15 9a3d f621 c8be 2591 a4be
000002c0: d03b 6dbe 5ca9 c8bd 7ba7 c6be 85ec 9abe
000002d0: 9bb0 a4be 9f94 cabe e339 c1be 8a7b 28be
000002e0: 4e6c 38be 4524 b9be 8756 6ebe 7a5b c5be
000002f0: 5fc7 2fbe 8aa2 bdbe 6455 7fbd d0f7 99be
00000300: 502b 563d 7447 23bd 8e3e 2ebe 0e34 e03d
00000310: 3ac5 4cbe b02a 8fbe 5c7a 02bd f978 40be
00000320: 681c b6bc 50a0 fabd 2acd a13d 51d8 8fbe
00000330: 8c2e 6ebe c2c9 bfbd 8ce7 32be 222e fbbd
00000340: acad e9bd a56b 13be 7824 83bd 68d8 65bd
00000350: 6ad0 82bd 5811 fcbd b811 23bd 34d5 053d
00000360: ec33 9f3d b255 84bd aba0 75be d0b2 2dbc
00000370: f040 ea3d c2e3 c5bd 9e92 b8be 9e8b a4bd
00000380: b0b4 ca3d 264e ec3d c6a1 d9bd 40d4 fdbc
00000390: 74ae 283d 1e63 b63d f8e3 9dbc d2ef e9bd
000003a0: 4837 25be bc52 9bbd be58 873d 9a0e b13d
000003b0: 1889 c73d e7a0 59be c0ab 293c 1214 fcbd
000003c0: fa45 98bd 5ea7 b3be 80ad a1bd 60c8 d43c
000003d0: 6c3d 803d fc71 9dbd 7ce1 7cbd 8e1d f63d
000003e0: c0f5 6cbb f056 523c f82e b7bd 4c45 eabd
000003f0: 9028 3cbd 10dd 16bc 5aef 81be 8e67 81bd

fc2.bias f4 [64]
-0.27014703 0.18909332 -0.35247317 -0.2881744 -0.7114836 -0.45721307 -1.5969344 -0.3900345
-0.36906064 3.6264448 -0.30089992 -0.101441525 1.1723111 -0.068981595 -1.1629417 -0.5099544
-0.24992606 -0.65409464 -0.2391105 -0.28972927 -1.1430548 -0.3249804 6.3021245 0.92999107
-0.25635117 -0.28949386 -0.35135356 -0.38020802 -1.7144362 -2.1559124 -0.029469846 0.6233128
4.0666285 -0.1798261 -0.5710882 -0.35759667 -1.3469864 -0.2384821 10.594104 6.304793
-0.9497769 -1.3347843 -0.14471361 -0.13206798 -0.78476053 -0.12852632 -0.17711544 -0.32701898
-0.24325682 -0.08347732 -0.6720734 0.06540093 -0.22993967 -1.1652893 -0.3439008 -0.04592443
-0.22645672 -0.030563785 -0.13875426 -0.638759 -0.052554585 -0.1759953 -0.43811083 -1.1116279
00000000: b650 8abe aea1 413e 5d77 b4be 988b 93be
00000010: ca23 36bf d517 eabe 5968 ccbf 9ab2 c7be
00000020: 84f5 bcbe ac17 6840 8e0f 9abe 93c0 cfbd
00000030: 4a0e 963f 3946 8dbd 46db 94bf 5f8c 02bf
00000040: 9eec 7fbe bf72 27bf 62d9 74be 6557 94be
00000050: 9f4f 92bf d563 a6be 01ab c940 e513 6e3f
00000060: 7640 83be 8a38 94be 9de4 b3be a0aa c2be
00000070: a572 dbbf 78fa 09c0 bf6a f1bc 6d91 1f3f
00000080: d221 8240 5524 38be d632 12bf e916 b7be
00000090: 0d6a acbf a734 74be 7381 2941 ddc0 c940
000000a0: 9424 73bf 36da aabf ce2f 14be d43c 07be
000000b0: 11e6 48bf 679c 03be c05d 35be 086f a7be
000000c0: 5118 79be 28f6 aabd 010d 2cbf ecf0 853d
000000d0: 4e75 6bbe 3328 95bf c413 b0be 411b 3cbd
000000e0: 45e4 67be e760 fabc 9915 0ebe b685 23bf
000000f0: 7a43 57bd 1d38 34be 1050 e0be d349 8ebf

fc3.weight f4 [64, 64]
3.6567693 1.6377844 -0.095543444 -0.07741663 3.7584639 -0.06764188 3.339847 -0.05333577
0.30990422 -4.3183684 3.6521127 3.6781979 -0.55144435 3.580183 6.302856 0.07634512
2.247827 0.10897815 -0.22319476 3.713873 2.1494105 3.737262 0.15150474 2.4922142
3.7151062 0.07241018 -0.17632781 -0.0029886663 2.5415566 4.1435065 3.6866987 2.9941916
0.44430783 3.6118665 0.1523305 3.6936166 5.287228 3.698872 -4.43209 -4.7188997
2.7157593 4.081795 -0.050642386 -0.25115478 -0.25726664 0.14782257 0.05842863 3.7457507
1.8859615 3.567133 -0.056051835 3.5987055 3.171573 3.257773 3.746726 0.051197384
3.675637 0.024092896 3.6882672 -0.12221053 -0.051503554 3.7259789 -0.2588296 4.9296184
3.6761172 0.25146115 0.27122536 -0.20831473 -0.4006248 -0.057120603 2.8366752 -0.24358343
-0.06291917 0.90845805 3.7342453 3.8242927 0.2864786 3.8224752 2.9738796 -0.28944874
0.6655514 0.11585665 0.12574312 3.8651335 -1.8083198 3.8317978 0.092807814 4.950771
3.800788 -0.0386745 0.06468859 0.005345574 -0.99811304 1.1967885 3.8152008 6.736271
3.1822467 3.8284082 0.022536635 3.7838745 0.32236516 3.8669066 -4.206095 4.8100696
0.23559214 2.4797094 -0.0043024584 0.028371336 0.12232168 -0.04832545 0.22294332 3.7229037
3.4969285 3.8221896 0.15660688 3.8501945 2.9234326 2.8462524 3.8479528 0.06749694
3.7680871 -0.05225696 3.7588904 -0.30793834 0.05730529 3.8113647 -0.004345253 2.9719064
3.3317478 2.1491957 0.031412825 0.049960986 2.9857574 0.2469882 2.3175151 -0.045345202
-0.08745571 0.9028001 3.2987726 3.4069376 0.3560788 3.2855234 1.8290818 -0.21445365
2.510503 0.29675785 -0.04156278 3.3123503 2.040792 3.2583518 3.0269108 4.4705715
3.3161924 0.29839605 -0.043499976 0.046514034 2.1472363 2.0299425 3.3669105 5.201997
5.0833035 3.3793669 0.09177677 3.2063656 3.7322457 3.3961568 -4.188358 0.29578403
2.7415025 2.3012812 0.23475708 0.11438489 0.30715156 -0.016009822 0.04708758 3.386493
5.773936 3.2798944 -0.115850374 3.222387 3.2955072 2.7522924 3.268245 -0.004511431
3.339244 0.04633014 3.272039 -0.11282109 0.044199005 3.3300538 -0.015905067 3.922223
3.654407 1.3648854 -0.039702833 0.11149232 1.9401966 -0.11313565 4.25234 0.05401373
0.08547765 0.8275791 3.6294775 3.4989083 0.15849085 3.6067703 2.87978 -0.008826582
1.3824505 -0.006737832 0.122026145 3.5444207 0.06897054 3.6405792 5.302787 3.5978365
3.58965 0.04956469 0.118116796 0.060253873 0.97699094 1.7937192 3.5515869 5.1370015
3.7074828 3.5160136 -0.087601855 3.6327913 2.0349143 3.499136 -3.2165685 2.1066525
2.053202 2.876331 0.3290931 0.067375526 -0.14448155 -0.00044970214 0.036427014 3.6734924
2.9633904 3.670361 -0.0054593235 3.6310723 2.8469288 3.4089963 3.5859885 0.036349557
3.5626063 0.009387836 3.6369338 0.21670046 0.072845995 3.5716467 -0.019471854 3.7696178
00000000: 8208 6a40 eba2 d13f 48ac c3bd 9c8c 9ebd
00000010: ac8a 7040 d387 8abd 0ec0 5540 9c76 5abd
00000020: c4ab 9e3e 1330 8ac0 37bc 6940 9867 6b40
00000030: 752b 0dbf b821 6540 ffb0 c940 d55a 9c3d
00000040: 66dc 0f40 f02f df3d 2b8d 64be 18b0 6d40
00000050: f18f 0940 4d2f 6f40 0f24 1b3e 7080 1f40
00000060: 4dc4 6d40 ca4b 943d 478f 34be 80dd 43bb
00000070: dda8 2240 9b97 8440 dff2 6b40 d6a0 3f40
00000080: 517c e33e d228 6740 87fc 1b3e 3764 6c40
00000090: f930 a940 52ba 6c40 aed3 8dc0 3a01 97c0
000000a0: 00cf 2d40 119e 8240 646e 4fbd 5c97 80be
000000b0: 74b8 83be cd5e 173e dc52 6f3d 61ba 6f40
000000c0: 3067 f13f e84b 6440 9c96 65bd 3151 6640
000000d0: 0dfb 4a40 5a7f 5040 5cca 6f40 59b4 513d
000000e0: a33d 6b40 775e c53c 920c 6c40 8449 fabd
000000f0: 64f5 52bd 7076 6e40 5085 84be 6fbf 9d40
00000100: 8145 6b40 84bf 803e 0dde 8a3e 7550 55be
00000110: b21e cdbe 4bf7 69bd 168c 3540 ef6d 79be
00000120: c4db 80bd b590 683f e0fd 6e40 36c1 7440
00000130: 53ad 923e 6fa3 7440 0b54 3e40 a032 94be
00000140: 9461 2a3f 4046 ed3d cec2 003e 595e 7740
00000150: 0677 e7bf 2d3c 7540 0612 be3d b76c 9e40
00000160: 1c40 7340 2769 1ebd 747b 843d ed29 af3b
00000170: 5684 7fbf 5e30 993f 402c 7440 888f d740
00000180: eea9 4b40 a404 7540 c09e b83c 002b 7240
00000190: 0c0d a53e 667b 7740 5598 86c0 17ec 9940
000001a0: 113f 713e 8fb3 1e40 a3fb 8cbb 016b e83c
000001b0: ca83 fa3d e8f0 45bd 414b 643e 0e44 6e40
000001c0: adcd 5f40 c19e 7440 8e5d 203e 9669 7640
000001d0: 8519 3b40 0029 3640 dc44 7640 d63b 8a3d
000001e0: 5728 7140 650b 56bd a991 7040 18aa 9dbe
000001f0: f4b8 6a3d 66ed 7340 a062 8ebb b733 3e40
00000200: 5b3b 5540 6c8c 0940 bcaa 003d e4a3 4c3d
00000210: a616 3f40 7aea 7c3e 2b52 1440 e4bb 39bd
00000220: fb1b b3bd e81d 673f 171f 5340 440b 5a40
00000230: f64f b63e 0446 5240 5a1f ea3f bd99 5bbe
00000240: 15ac 2040 a5f0 973e bc3d 2abd 8cfd 5340
00000250: 569c 0240 d688 5040 e8b8 4140 ec0e 8f40
00000260: 7f3c 5440 5ec7 983e 082d 32bd 8085 3e3d
00000270: 526c 0940 94ea 0140 767b 5740 c276 a640
00000280: 6caa a240 8c47 5840 76f5 bb3d 1835 4d40
00000290: 1ddd 6e40 a25a 5940 0707 86c0 0171 973e
000002a0: c774 2f40 3148 1340 2964 703e a042 ea3d
000002b0: f842 9d3e 0827 83bc e8de 403d 4dbc 5840
000002c0: 15c4 b840 cae9 5140 f642 edbd 973b 4e40
000002d0: 97e9 5240 8f25 3040 ed2a 5140 a0d4 93bb
000002e0: 2cb6 5540 acc4 3d3d 1669 5140 be0e e7bd
000002f0: 040a 353d 9a1f 5540 584b 82bc b405 7b40
00000300: cee1 6940 91b4 ae3f 709f 22bd 1656 e43d
00000310: 5d58 f83f aab3 e7bd 2b13 8840 803d 5d3d
00000320: e80e af3d 39dc 533f 5c49 6840 1dee 5f40
00000330: 6d4b 223e 53d5 6640 514e 3840 5e9d 10bc
00000340: 23f4 b03f 08c9 dcbb d8e8 f93d cad7 6240
00000350: 6d40 8d3d 40ff 6840 6eb0 a940 f442 6640
00000360: d3bc 6540 5804 4b3d 38e7 f13d c4cc 763d
00000370: 141c 7a3f 9798 e53f 334d 6340 5162 a440
00000380: 6647 6d40 5e06 6140 9a68 b3bd a77f 6840
00000390: 093c 0240 d8f1 5f40 42dc 4dc0 65d3 0640
000003a0: a967 0340 cf15 3840 e47e a83e 2efc 893d
000003b0: f9f2 13be 00c6 ebb9 7e34 153d 801a 6b40
000003c0: 30a8 3d40 32e7 6a40 20e4 b2bb 7d63 6840
000003d0: 1534 3640 ff2c 5a40 d680 6540 46e3 143d
000003e0: be01 6440 70cf 193c 86c3 6840 bae6 5d3e
000003f0: 4830 953d dc95 6440 7083 9fbc 6b41 7140

fc3.bias f4 [64]
-3.4155948 6.5157013 1.2001202 -2.9931724 0.0006211549 0.044719517 0.0880958 0.02093327
0.1231655 0.019652009 -0.11192939 9.635091e-05 -0.090770915 0.050279558 -0.11944234 0.018309101
-0.0935975 -0.0027941763 -0.03077279 -0.12164031 0.11818786 0.040003 0.10068752 -0.03917958
0.015265971 -0.089654505 -0.121829614 0.016406447 -0.103043646 0.08344437 0.061500117 -0.061355278
0.113879934 0.017242417 0.12220281 0.097358435 -0.0074026287 0.012664527 0.08413006 0.066045746
-0.12132439 -0.06417903 0.08026321 0.11775136 0.08911055 0.10271105 -0.005398467 -0.051073536
0.11524488 0.04403843 -0.075540304 -0.017452866 0.025197133 0.0047793537 -0.1059846 -0.07246746
0.12326102 -0.06847213 -0.031544894 0.027408466 0.113149285 -0.031628132 0.053054303 0.06770611
00000000: 1b99 5ac0 a080 d040 8a9d 993f 2390 3fc0
00000010: 00d5 223a d02b 373d 926b b43d 407c ab3c
00000020: 323e fc3d 40fd a03c 3c3b e5bd 0010 ca38
00000030: 1ae6 b9bd f0f1 4d3d 309e f4bd f8fc 953c
00000040: 0cb0 bfbd 801e 37bb 3817 fcbc 8e1e f9bd
00000050: 7a0c f23d 30da 233d 4235 ce3d c47a 20bd
00000060: 201e 7a3c c89c b7bd ce81 f9bd d066 863c
00000070: 8c08 d3bd e2e4 aa3d 8ce7 7b3d ac4f 7bbd
00000080: e239 e93d f83f 8d3c 7845 fa3d dc63 c73d
00000090: c091 f2bb e07e 4f3c 624c ac3d fe42 873d
000000a0: ec78 f8bd 4c70 83bd 0a61 a43d a027 f13d
000000b0: 987f b63d 2c5a d23d a0e5 b0bb 7c32 51bd
000000c0: 8205 ec3d a461 343d e0b4 9abd 50f9 8ebc
000000d0: 386a ce3c 209c 9c3b 740e d9bd d269 94bd
000000e0: 4670 fc3d 1e3b 8cbd 3835 01bd b887 e03c
000000f0: d0ba e73d 808c 01bd 784f 593d 80a9 8a3d
